model/keypoint_classifier/keypoint_classifier.tflite (tflite, 7344 bytes, 6 tensors)

sequential_4/dense_12/BiasAdd/ReadVariableOp/resource f4 [20]
00000000: 4ecd b6bf ae1a 80bf 0f06 8bbf 4fad 04be
00000010: 9a03 ad3e ea9e adbf 76bb cb3f 6273 a9bf
00000020: fc20 a4bf f86e 693e 8530 26bf 8e84 983f
00000030: a8e1 65bf cf77 99bf d1d7 a7bf 7271 94bf
00000040: a6b4 773e ac04 3b3e a8e8 8e3e 242b 39bf
-1.4281404 -1.0008142 -1.0861224 -0.12956737 0.3379181 -1.3564122 1.5916584 -1.3238337
-1.2822566 0.22796237 -0.64917785 1.1915452 -0.8979745 -1.1989688 -1.3112737 -1.1597121
0.24190006 0.18263501 0.27911878 -0.7233145

sequential_4/dense_13/BiasAdd/ReadVariableOp/resource f4 [10]
00000000: 86aa 2a3d 45ce 713d 1744 df3e afa6 663e
00000010: c9eb 6c3f 4922 333e c347 563f 4f47 61be
00000020: 8a7a de3f 30e7 e63e
0.04166653 0.059034605 0.43606636 0.22524522 0.9254728 0.17493547 0.8370325 -0.21999858
1.7381146 0.45098257

sequential_4/dense_14/BiasAdd/ReadVariableOp/resource f4 [27]
00000000: 5261 18bf cf81 0fbf 5a51 873d 2d22 e4bf
00000010: ad61 983f 4b1c 343f 72fd dc3e 0bfd 133f
00000020: 2c6c 43be b1e8 433f 2eb6 88bf dc21 143e
00000030: 45af 093e 9ebb a5bd 392d 96be 80ad 5abf
00000040: f49d 92be 1a7e 4bbf 5cbe 633f 2271 8a3e
00000050: 4da7 a3bf 3523 733f 9dca 823f e8d3 c33d
00000060: 04a9 1cbe 1394 a2bf 58a5 0c3e
-0.595235 -0.5605745 0.066073135 -1.782293 1.1904808 0.7035567 0.43162113 0.5780799
-0.19084233 0.76526934 -1.0680597 0.14466041 0.13445766 -0.08092426 -0.29331377 -0.8542099
-0.28636134 -0.7948929 0.8896234 0.27039438 -1.2785431 0.94975597 1.0218083 0.09561902
-0.1529885 -1.2701439 0.13734949

sequential_4/dense_12/MatMul f4 [20, 42]
00000000: 729c 56be ecc8 003e 0c63 563c 021b df3f
00000010: b62c 003e 0738 b43e 6a48 c7bc b6eb 5b3e
00000020: 39fb 7fbd 6481 2b3e d002 3b3e d956 dcbc
00000030: 45b8 0d3e 3deb a83c d8ae c43d 89d5 fc3d
00000040: 9ef2 5cbd 6115 d03d b67a 473e 0984 21be
00000050: 838a ea3c a7db 03be 21bd 7abd 1e58 57bd
00000060: 9210 dabd 2ceb 4cbc 35f5 2e3c 8d81 98be
00000070: 640f 5b3d 4426 eabe 1f3d 983b 0367 f2bf
00000080: e779 29be b4c2 38be 9cdb 00be 7ab2 06bf
00000090: d018 453d 43db 64be 28b7 133e 2826 c23d
000000a0: 69d6 e33d f583 ba3e c8cf ca3d 7a2e 11be
000000b0: 63cc 8fbd 2d12 1abe 3f54 2cbc eebc 453c
000000c0: efaf 2d3d cd04 853c ca6f bb3d d116 7b3d
000000d0: 9823 e7bc 3a60 df3b 87e3 83bc dcdb 2f3a
000000e0: 2177 fd3c e5cf 0b3d ae50 b53c 699f 443a
000000f0: 9421 42bd 110e fa3c e3a4 773c 4c9a c33c
00000100: 878e 4fbd 4307 ef3c 9a85 04be 0128 3a3d
00000110: c9f9 b03d a598 3c3d 3b8d 253d b246 633d
00000120: d7ae 353d 0321 2c3e 74de b8bd 7d43 433e
00000130: 6661 983d 57e5 a23d 73b9 95bd 6a44 a63d
00000140: b64c 9e3c 2799 313e 02ba 0e3c 0403 2ec0
00000150: 11b0 26be d596 44be 78e7 593d fdee 2c3e
00000160: c884 18bc 3def c1bc 0c60 563c 715c e6ba
00000170: a5bd cd3d 9daf dd3c ef74 46bd bec9 31bd
00000180: bd25 133c 8e79 92bc 169c 263d 6940 033d
00000190: ef44 7b3d 92ca a33d 9419 e7bd 6532 4abd
000001a0: 6dcf bebc a697 5bbc 00d1 0dbd 1e47 f43c
000001b0: 069d 9fbb b9bb 6b3d 7f92 dbbd b242 4fbd
000001c0: b09b 75bd 8e03 ab3c 0582 12bc eb30 213e
000001d0: 4161 53bc 9c0f 11c0 4771 273b 7eac 3cbd
000001e0: 2b8e dbba 8f71 e2bb 1114 3e3d 4e19 de3d
000001f0: d152 4d3d 7777 313e 15ac 26be 5c95 a63d
00000200: 932a 89bf fe55 4ebf 59e4 b7be 3a2d 113e
00000210: 5e67 7dbe fe27 483e 68c0 7abe d475 4b3e
00000220: 66ac 5a3f 58ac 1a3d ae81 813e f3b1 bd3c
00000230: 77e2 30be 04b3 57bc 5498 e1be 2a75 913d
00000240: ef55 d03f 73d6 a53d 6749 41be 73e4 f63d
00000250: 334a c3be 0660 243e a6cb 63be 1369 8e3d
00000260: 05b2 de3f 7a38 853d c518 b5be 589f de3d
00000270: fab3 14bf 3bde ff3d a87a 19bf f82a 9e3d
00000280: 1892 2d3f 5fa1 da3d 9484 e0be afb9 bd3d
00000290: 95c4 23bf e833 76bd b7c8 49bf 1c49 0dbe
000002a0: 5c99 9e3d e074 19bc 2432 1e3e 5c37 dc3e
000002b0: bcb7 603e f329 b23d fad0 253f d9a5 cb3c
000002c0: fa98 0840 b544 f23b 4a17 7dbe 17ad e23d
000002d0: 8a2d a93d 07ef 103e cee6 693d 58fc 593e
000002e0: 24d4 13bd da25 3a3e 6f0d e0be e1de c43d
000002f0: bf17 4ebd a6ff 323e 7e38 273d 289c 8c3e
00000300: 3018 053d 2ce3 533e 8e01 b4be 50c1 c83d
00000310: 1edd 13be 645e 173e bc1a 1dbe a94f 903e
00000320: 500e 8bbe c623 023e ba17 86be 92cc 57bb
00000330: 6504 b9be 8293 ba3d f2c9 2abf 9ebd fe3d
00000340: 094d 6ebf 2871 103d 8000 cc3b 0c78 74be
00000350: 3bce b53d d46e 4c3e f0d0 aebc ed3e 21bf
00000360: 56b9 23bd 9770 b2be db60 32be 4890 92bf
00000370: 4047 30be 1b1b bcbe b72a 8b3d fcf9 953c
00000380: bfaa fc3d 332c 783e 35ff 0d3e 5c7f 6b3e
00000390: c1bb a1be 9883 c6be 0f42 653d b813 52bd
000003a0: 3412 373e 0213 753e 614b 433e e185 893e
000003b0: 9e5d ddbe 7fb7 adbe 15c9 7e3d 14b7 c3bd
000003c0: f26c ff3d fda3 623e 1f27 9b3d 143c a33e
000003d0: f073 8cbe 28af fabe b278 c5bd 33fd 4fbe
000003e0: b1c8 67bd 858c 0fbe 268f 66be 6e21 b3be
000003f0: c0be 65bc 5065 773e 010a 46bf 45b3 de3d
-0.20958117 0.12576646 0.013085138 1.7430117 0.12517056 0.35198995 -0.024326522 0.21476635
-0.062495444 0.16748577 0.18262792 -0.026896881 0.13839824 0.020619983 0.09603661 0.12345416
-0.053942315 0.10160328 0.19480404 -0.15773024 0.0286305 -0.1287676 -0.061215524 -0.05257427
-0.10647692 -0.012507241 0.010678579 -0.2978634 0.053481475 -0.4573232 0.004645958 -1.8937687
-0.16550408 -0.18043023 -0.12583774 -0.52616084 0.048119366 -0.22349267 0.14425337 0.09479934
0.1112488 0.364288 0.099029124 -0.14177886 -0.070214055 -0.15045996 -0.010518133 0.01206897
0.04240411 0.01623764 0.091521814 0.061301056 -0.028215215 0.006816891 -0.016099704 0.0006708482
0.030940594 0.03413381 0.022133198 0.00075005606 -0.047395304 0.030524286 0.015114996 0.023877285
-0.050673034 0.029178267 -0.1294159 0.045448307 0.08641393 0.04604401 0.04041789 0.055487342
0.044356193 0.16809468 -0.090268046 0.19068713 0.07440452 0.07953899 -0.07310762 0.08118518
0.019323688 0.17343579 0.00871134 -2.718934 -0.16278102 -0.19198163 0.05319926 0.16888042
-0.009309001 -0.023673648 0.013084423 -0.0017575157 0.100459374 0.027061278 -0.04845136 -0.043405287
0.0089811655 -0.017880227 0.0406762 0.03204385 0.061345037 0.079976216 -0.112841755 -0.049364466
-0.023292268 -0.013402855 -0.034623146 0.029819068 -0.0048710136 0.057552073 -0.10721301 -0.050600715
-0.05996293 0.020875718 -0.008942132 0.15741317 -0.012901605 -2.2665777 0.0025549696 -0.04606294
-0.0016750743 -0.00691051 0.046405856 0.1084467 0.050127808 0.17330728 -0.16276582 0.08133957
-1.0716118 -0.80599964 -0.35916403 0.14177409 -0.24746463 0.19546506 -0.2448746 0.19869167
0.8541931 0.037762016 0.2529425 0.023156142 -0.1727389 -0.013165239 -0.4406153 0.071024254
1.6276225 0.080975436 -0.18875657 0.12055292 -0.38142547 0.16052255 -0.22245654 0.06953635
1.7398077 0.06504913 -0.3537046 0.10870236 -0.5808712 0.12493559 -0.59952784 0.077230394
0.67801046 0.1067531 -0.4385115 0.09263932 -0.63971835 -0.060108095 -0.7882189 -0.1379742
0.07744095 -0.009366244 0.15448815 0.43010986 0.21945089 0.086994074 0.64772 0.024859356
2.134337 0.0073934444 -0.24715915 0.110681705 0.08260639 0.14153682 0.057104878 0.21287668
-0.036090985 0.18178502 -0.4376025 0.09612823 -0.050315615 0.17480335 0.04082536 0.27462888
0.03249377 0.20692128 -0.35157436 0.098024964 -0.14439818 0.14782101 -0.1534223 0.28185776
-0.27159357 0.12708959 -0.26189977 -0.003292833 -0.36136165 0.09110166 -0.66714394 0.1243851
-0.93086296 0.035264164 0.0062256455 -0.23873919 0.08877226 0.19964153 -0.021339864 -0.6298664
-0.039971672 -0.34851524 -0.1741976 -1.1450281 -0.1721468 -0.3673943 0.067952566 0.018307678
0.12337255 0.2423561 0.13866885 0.22997802 -0.31588557 -0.38772273 0.0559712 -0.051288337
0.17878038 0.23933032 0.19071724 0.26859954 -0.43235487 -0.3392906 0.062203486 -0.09556404
0.124719515 0.22132869 0.07575821 0.31881773 -0.27432203 -0.4896176 -0.096421614 -0.20311432
-0.05658788 -0.14018448 -0.22515544 -0.34986442 -0.014022529 0.24159741 -0.77359015 0.10874037

sequential_4/dense_13/MatMul f4 [10, 20]
00000000: 770e 1a3f 22be dcbe ec9d ffbe a643 893f
00000010: e971 893f 90b2 413f 2d47 333e 0816 1b3e
00000020: 6fcf f1bd ebff 833e 9ac5 473e b9ea 023e
00000030: 9ce7 e53d b27b a33e f2fc 7e3e 91b7 53bc
00000040: 249f 68bf 73e1 11bf 4dcb ce3e a37b 8e3f
00000050: d6b1 4bbe 9668 173e 3867 8fbd dad4 4e3f
00000060: 863f e3bd cb28 133f aad9 243f e532 e53d
00000070: dad5 233f e0fe 033e d857 873f a4d2 7e3f
00000080: 17b9 bf3f a82c 4d3f 1c99 ed3f 3573 48bd
00000090: f71c f33d 6bda 013f 135f 46be 9d8e 993e
000000a0: f69f 93be 46d0 f73e c849 19be 3215 1ebe
000000b0: 2eec 253f 951e 933e 80ee 353e 7410 a93e
000000c0: 2185 9fbe 7428 293e a07a 7a3f 6d04 2a3d
000000d0: 61fc 4c3f 8f8a 223f db1f a23f affe 1f3f
000000e0: d71e 19be 2405 f43d 8233 443f 46e3 6d3f
000000f0: 219e 4d3f fbdb 933f bbdd a83f 010c 9e3f
00000100: 72fa a1be 9f69 ca3c ab87 3e3d 80be 7f3f
00000110: 4ab6 693e 5112 f83e 6634 983f ad3d 62be
00000120: 033c babd 0ee8 403e 18e3 36be dfae b23f
00000130: 5979 aebd 70bd 9e3e 3b00 62bd 5611 2c3f
00000140: a6cd b93f a921 893f 3296 f73f 51ac 553d
00000150: aca1 20be 9e5c d83f 27f6 e7bd 488d a33f
00000160: 8eba 853d 0ba5 883e 2bd5 a5be 7b25 ddbd
00000170: e218 103f 26cb 963f e64b e43f 8024 c23e
00000180: d5b0 5fbe ee87 acbd 0afa 11be 3323 92bd
00000190: c770 6f3f e057 9dbd 449e 963f 5dac 103e
000001a0: 1af1 e23f d26b bcbd 4a29 aa3f a32a 673e
000001b0: 49c7 7a3f 9d70 e53b df76 9cbe acaa 843f
000001c0: 20c0 9abd 200d 4f3e 75cb 77be b389 e33d
000001d0: e670 33ba d155 303f 265b e13f 80a4 033f
000001e0: 9fa9 4cbf 1f77 39c0 946c 69c0 b822 1e3f
000001f0: 5d23 af3e e011 2c3d 0b83 2c3f f66c aebf
00000200: 3a75 30be 1754 483f 81a5 03bd 9bdc 7e3f
00000210: b98d 5f3e b722 593e e684 d93e eed4 5b3f
00000220: 2f7e 633f f4ff 583f 9810 663e 8add a6bd
00000230: 34ce fabe 2b10 0840 e5eb 1ebe 80f4 a53e
00000240: c3d8 983f c1c2 673e c0ca 443f 66f6 963f
00000250: b4bf 08bf d09b 5ebf 0b91 3ebe f5e0 633f
00000260: 64d1 f5bd 6889 853b 2631 06bd 9d0a 82bf
00000270: 8531 113e 5761 703f ff41 933f ef0f 363e
00000280: 2341 113e 95b7 25c0 530c 2fbf 2f40 d03d
00000290: 14d8 c23e 4233 ee3e b3f4 253e 84b0 69be
000002a0: 2f14 be3e cfd2 063f 76e7 e73d d27c c73d
000002b0: edcd 463e 9c99 633f dfbb 243f 8711 983f
000002c0: 97af f4bc 88f8 32be d158 2b3e ed74 7f3e
000002d0: 9ffd 9c3d cd38 e53c e485 793f ce1c c23d
000002e0: 81bf 8ebe fa07 bcbf 7f64 e13d ea97 023e
000002f0: 13f3 233e 1589 813f 5eec b7bd f0f3 a53e
00000300: 3a64 e5be 7e88 aebf 7943 6ebf 0a1b 1d3f
00000310: cd9c 2240 0cbf 1c3e 444d 6dbd e522 cdbc
0.6017832 -0.4311381 -0.49925172 1.072377 1.0737888 0.7566309 0.1750762 0.15145123
-0.11807143 0.25781187 0.19508973 0.12784852 0.112258166 0.3193031 0.24901178 -0.012922184
-0.9086783 -0.56984633 0.4038948 1.1131481 -0.19892058 0.1478599 -0.07002109 0.80793536
-0.110961005 0.5748412 0.6439463 0.11191348 0.63998187 0.12890196 1.0573683 0.9954016
1.497836 0.80146265 1.856235 -0.048937995 0.11870759 0.50723904 -0.19372205 0.29991618
-0.28832978 0.48401088 -0.14969552 -0.15437773 0.64813507 0.2873427 0.17766762 0.33020365
-0.31156257 0.16519338 0.9784336 0.041508127 0.800726 0.63492674 1.2665972 0.6249799
-0.1495317 0.11915043 0.76641095 0.92924917 0.8031941 1.1551508 1.3192667 1.2347413
-0.31636387 0.024708567 0.0465161 0.99900055 0.22823444 0.48451474 1.1890991 -0.2209384
-0.090934776 0.18838522 -0.17860067 1.3959616 -0.08519239 0.31003904 -0.055176 0.6721395
1.4515884 1.0713397 1.9342711 0.052166287 -0.15686673 1.6903265 -0.11326247 1.2777491
0.06529723 0.26688418 -0.32389197 -0.107981645 0.5628797 1.1780746 1.7835662 0.37918472
-0.218448 -0.08424364 -0.14255539 -0.0713562 0.9353146 -0.076827765 1.1767049 0.14128251
1.7729828 -0.092002526 1.329385 0.22574858 0.97960335 0.00700195 -0.3055944 1.0364585
-0.07556176 0.2021985 -0.24198706 0.111102484 -0.0006845131 0.68880945 1.7605941 0.5142288
-0.7994632 -2.8978956 -3.647252 0.61771727 0.34206668 0.042009234 0.67387456 -1.3627002
-0.17232218 0.7825331 -0.03214026 0.9955537 0.21831407 0.21204649 0.42484206 0.8587178
0.88864416 0.84765553 0.22467268 -0.08147724 -0.48985445 2.1259868 -0.15519674 0.324131
1.194115 0.22632886 0.7687187 1.1793945 -0.53417516 -0.869565 -0.18610017 0.8901513
-0.12002829 0.004075218 -0.032761715 -1.0159489 0.14179046 0.9389853 1.1504515 0.17779516
0.14185004 -2.58933 -0.6837818 0.10168492 0.3805548 0.46523482 0.16206627 -0.22821242
0.37124774 0.5266542 0.113234445 0.097406045 0.19414492 0.88906264 0.6434917 1.1880349
-0.029868884 -0.1747762 0.167331 0.24946947 0.07665562 0.027981186 0.97469926 0.0947815
-0.2788048 -1.4689934 0.11005496 0.12753263 0.16010694 1.0119959 -0.0898063 0.32412672
-0.4480303 -1.3635404 -0.93071705 0.61369383 2.5408204 0.15307254 -0.057935014 -0.025041053

sequential_4/dense_14/MatMul f4 [27, 10]
00000000: ae60 10be 880d 41bf ad2f dbbf e3c3 073e
00000010: a2bf fcbc 15d6 573f 1e89 5dbf d001 373f
00000020: 1383 44bf 53a0 1d3f dd30 6d3e d073 263e
00000030: 3224 dd3e 55ea 85bf 6471 973e 6a96 b63e
00000040: eea6 85bf 54b2 b8be 365e a3bd 05b7 adbe
00000050: 0090 3fbf f579 77bf f9f5 cbbe 3e88 483f
00000060: 7ebd 6d3e c787 e6be 3e99 3fbf 5658 dbbe
00000070: 5060 3dbf ce05 523f ab0c c4bd 884f 23be
00000080: 5fcf 863d 7edf 893f 8c29 79be 3c77 033f
00000090: 5ba3 68bf 4723 96be 18a4 3abf 1826 903d
000000a0: d0cc a73e 6007 e9be feb6 b93d fbb0 5a3f
000000b0: c3a7 f4be 6716 1dbf 2876 06bf 8ae9 dcbe
000000c0: c9dc 98be 9956 12bd 3d2a 12bf 4951 fdbe
000000d0: d688 f73e 4ef6 b83e 5c53 ca3e e7d0 b03e
000000e0: 32eb 84bf c08e 0fbf c839 0dbf bffe 20bf
000000f0: 5f74 aebe ac87 c9bf 3e7d 90bf 1dd5 c8be
00000100: 64f8 033f e7e6 9f3e 0176 f3be d7b2 e03e
00000110: 24ae 59bf 1b1d 5c3f 95d5 193e 6031 643c
00000120: a29e 183c 1b48 ca3e ef6f 5bbf f58d 023f
00000130: 8fda 14bf d21d 06bf 3e27 443e 8d27 9fbf
00000140: 9c61 f13d 1eb2 2c3f 678c 703e 5210 19bf
00000150: 714d 0cc0 7267 7d3e d4e3 f13e 8036 85bf
00000160: 1770 f4bc 7a0e 953d ffe6 16bf 963d 49be
00000170: 2e45 ebbe c3aa 6ebe d907 f03e a931 b5be
00000180: 72f9 75bf dbf4 043f 99b1 143e 9b8b 82bf
00000190: 1950 bf3e d3ea 133f 54a8 3f3e 1ab6 043e
000001a0: e888 3ebd eb68 89be edac 12bf 9c0c 933e
000001b0: 57e2 14bf b524 29bf a842 a3bf e7df 0b3f
000001c0: c783 60bd 049b 0cbe 1207 85be 1685 fbbf
000001d0: 5649 023f 709c 40be 05f4 91bd cf9b 403e
000001e0: 6f51 32be 1957 a6bf 7d6f 333f 2150 1bbf
000001f0: 59b5 5fbf d7a9 523e b6fe 223f 91a7 4ebf
00000200: de33 ea3e 7180 0fbf 8590 bbbd 6116 e43e
00000210: f625 dbbe 5312 2bbf 4bfa 153f 5a74 f23d
00000220: a6e4 bbbf 731e 37bf 6303 82bd bf1d 56bf
00000230: 3847 083f d765 8f3e a590 cfbd 67ac babf
00000240: 2260 883e ea41 083e dacd 7cbf fb15 84bf
00000250: 151a 993e e26f 3dbf 7885 633e 7c10 683e
00000260: 3992 b23d 6cac 383f a5bb b0bd 7505 f53e
00000270: 7e3a 72bf e31d eebe 341f 4bbf 3caf 49bf
00000280: 4d74 5a3e 7f8b b6bd efbf f6be 7a11 97be
00000290: d0d8 22c0 6b85 6d3e a9c3 ef3e 9af1 793e
000002a0: c054 edbe e269 babc 4ef3 863e fdba 543c
000002b0: d7fb 9abe cb90 13be 71e6 21c0 f58c 463e
000002c0: 285d 543e 4479 b03e 9baf e3be 1e3d a83e
000002d0: 2b53 83bf 7310 eebf 492c 73bf 2139 b1be
000002e0: fc44 57be c100 7abf f28e bdbe bec8 71bf
000002f0: c036 4b3f cd61 473f 9129 8ebf 5f1b 993e
00000300: 5728 43be 91bf 2cbd 7695 653f 70f5 8bbe
00000310: b7eb b0bf ae59 4bbf d76a adbe 5206 0bbf
00000320: 5ad9 323f 71f9 7f3e f447 d4bd a994 9cbe
00000330: a14d b0be 080c e2bf a0a7 0e3e ba18 e4bf
00000340: 5625 3e3f 6b8d 55bf ccf9 58bf 15d3 7fbf
00000350: d872 4cbf ee25 9bbe ac26 d2be 147e 7abf
00000360: 3c08 bcbe f27a 5dbf 8d26 3f3f aaf8 403f
00000370: 8933 50bf a121 2fbf 9432 67bf fc65 4ebe
00000380: ab0f 2bbf 0e34 30bf 57de e9bd b8db 93bf
00000390: c827 223f 3c95 1d3f 57b7 a8bf bc0b 9ebf
000003a0: ec3f d5bf 9173 293f a3f8 893e fa20 d1be
000003b0: 63a3 4abf c0c9 8fbf 0454 d93c 21d8 5e3f
000003c0: 85de 273f 1f30 e9bd 7552 303e a153 333d
000003d0: 817c 09bf eb9e 75bf e55a ff3d 239b 7fbf
000003e0: 17a2 dd3e eb2a 56bf 2fd2 eabc 0437 2c3c
000003f0: b989 033f bebe 6bbf 6a09 ab3e 6776 b6bd
-0.1409938 -0.7541127 -1.7123924 0.13258319 -0.030853096 0.8431104 -0.8653735 0.7148714
-0.76762503 0.6157276 0.23163171 0.16255116 0.43191677 -1.0462137 0.29578698 0.35661632
-1.0441568 -0.36073554 -0.07976954 -0.33928695 -0.748291 -0.96670467 -0.398361 0.7833289
0.23216817 -0.45025465 -0.74843204 -0.42840832 -0.73975086 0.8204011 -0.09572729 -0.15948308
0.06582522 1.0771329 -0.24332255 0.5135381 -0.9087426 -0.2932379 -0.7290664 0.07038516
0.32773447 -0.4551344 0.09068106 0.854263 -0.47784242 -0.6136231 -0.5252404 -0.43146926
-0.29855946 -0.035727117 -0.570957 -0.49476078 0.48346585 0.36125416 0.39516723 0.3453438
-1.0384276 -0.56077194 -0.5516629 -0.6288871 -0.3407316 -1.5744529 -1.1288221 -0.39225093
0.5155089 0.31230852 -0.47550967 0.43886444 -0.8503134 0.8598191 0.15022881 0.013927788
0.009315165 0.39508137 -0.8571767 0.5099786 -0.58145994 -0.5238925 0.19155595 -1.2433945
0.11786196 0.67459285 0.23491059 -0.5979053 -2.1922266 0.24746493 0.47244132 -1.0407257
-0.029838605 0.07278152 -0.5894622 -0.196524 -0.45951217 -0.23307328 0.46880987 -0.3538945
-0.9608375 0.5193612 0.14520873 -1.0198854 0.37365797 0.5778019 0.18716556 0.12960091
-0.046517283 -0.2683786 -0.57295114 0.28720558 -0.5815787 -0.66071635 -1.2754717 0.5463852
-0.054813173 -0.13731009 -0.25981957 -1.964999 0.5089315 -0.18809676 -0.07126621 0.18809436
-0.17413877 -1.299533 0.7009199 -0.6066914 -0.8738609 0.20572601 0.6366991 -0.80724436
0.45742697 -0.5605536 -0.09158424 0.44548324 -0.428024 -0.66824836 0.5858504 0.118385985
-1.4679153 -0.71530837 -0.06348302 -0.8363914 0.5323367 0.28007385 -0.10135011 -1.4583863
0.26635844 0.13306394 -0.98751605 -1.0319208 0.29902712 -0.73998845 0.22218883 0.22662538
0.08719296 0.72138095 -0.0862954 0.47855726 -0.946205 -0.46507177 -0.7934449 -0.7878301
0.21333428 -0.089133255 -0.4819331 -0.2950552 -2.5444832 0.23195426 0.46828964 0.2440857
-0.46353722 -0.022755567 0.26357502 0.012984035 -0.30270264 -0.14410703 -2.52969 0.19389708
0.20738661 0.34467518 -0.44469914 0.3285913 -1.0259756 -1.859877 -0.9498945 -0.34613898
-0.21022409 -0.976574 -0.3702312 -0.94446933 0.79380417 0.7788361 -1.1106435 0.29903695
-0.19058357 -0.04217488 0.89681184 -0.2733569 -1.3821934 -0.79433715 -0.33870575 -0.5430652
0.698629 0.24997498 -0.103652865 -0.3058217 -0.34434226 -1.7659922 0.13931131 -1.7820046
0.7427572 -0.8341891 -0.8475616 -0.9993146 -0.7986274 -0.30302376 -0.4104513 -0.9784863
-0.36725032 -0.86515725 0.746682 0.7537943 -0.81328636 -0.6841069 -0.9031155 -0.20156091
-0.6682078 -0.6882943 -0.11419361 -1.1551428 0.6334195 0.6155584 -1.3180951 -1.2347331
-1.6660132 0.66191965 0.26947507 -0.40845472 -0.7915556 -1.1233444 0.02652932 0.87048537
0.6557391 -0.113861315 0.17218955 0.043780927 -0.537056 -0.95945615 0.12468509 -0.99846095
0.43287727 -0.8365924 -0.028664676 0.010511164 0.51382023 -0.92087924 0.3340562 -0.08909302
