model/keypoint_classifier/keypoint_classifier.tflite (tflite, 7344 bytes, 6 tensors)

sequential_10/dense_30/BiasAdd/ReadVariableOp/resource f4 [20]
0	0x3c615892	0.013754027
1	0xbf6ddb4a	-0.92912734
2	0xbfb53790	-1.4157581
3	0x3ea3e798	0.3201263
4	0xbe2e0a6f	-0.16996168
5	0x3fbe4dd4	1.4867501
6	0xbe43e32c	-0.19129628
7	0x3ba8bad7	0.005149226
8	0xbfc53133	-1.540564
9	0xbf72bead	-0.948222
10	0x3f46d7ce	0.7767304
11	0xbf724678	-0.94638777
12	0xbf6a0e7e	-0.91428363
13	0x3f019198	0.50612783
14	0x3e7a4f84	0.24444395
15	0xbf9f056e	-1.2423532
16	0xbfbe6e06	-1.4877326
17	0xbf669099	-0.9006439
18	0xbf797307	-0.9744114
19	0x3f366211	0.7124339

sequential_10/dense_31/BiasAdd/ReadVariableOp/resource f4 [10]
0	0x3e7c914b	0.246648
1	0x3fd7c7bd	1.685783
2	0x3f2bfb94	0.6718075
3	0x3fba2f7d	1.4545742
4	0x3e2cf382	0.16889766
5	0x3f4b154a	0.7932936
6	0x3ea799be	0.32734483
7	0x3df473a8	0.11936122
8	0x3f9758f1	1.1824018
9	0x3efc635d	0.49294558

sequential_10/dense_32/BiasAdd/ReadVariableOp/resource f4 [27]
0	0x3df3265a	0.11872549
1	0x3cbe28a5	0.02321274
2	0xbf198ef5	-0.5998376
3	0xbf9efa17	-1.2420071
4	0x3e8e5beb	0.27804503
5	0xbce3727a	-0.027764548
6	0x3ec45f28	0.38353848
7	0x3e4815a9	0.19539513
8	0x3f9b1242	1.2114947
9	0x3f042306	0.5161594
10	0xbfb93503	-1.4469303
11	0xbe248e2d	-0.16069861
12	0x3ef0109a	0.46887666
13	0x3d1993d2	0.037494488
14	0xbc7908c2	-0.015199842
15	0xbf35b3c2	-0.70977414
16	0xbecafb67	-0.3964493
17	0xbf1ff49e	-0.6248263
18	0x3f5418db	0.82850426
19	0xbf15b4a5	-0.58478767
20	0xbdf32154	-0.11871591
21	0x3f66d52e	0.90169036
22	0x3f11b738	0.56920195
23	0x3e674506	0.22584924
24	0xbdb04f42	-0.08608867
25	0xbf30d95c	-0.69081664
26	0x3e488cb7	0.19584928

sequential_10/dense_30/MatMul f4 [20, 42]
0	0x3df989e0	0.12184501
1	0x3e9b4762	0.30327898
2	0x3e70c9ef	0.23514532
3	0xbe9ba06f	-0.3039584
4	0x3df748a1	0.120744
5	0xbd8160b1	-0.063172705
6	0x3f045712	0.5169536
7	0xbca4f5ef	-0.020136802
8	0x40062fb2	2.096661
9	0xba4a4d50	-0.0007717209
10	0xbeca9e96	-0.39574116
11	0x3cf5afdb	0.029991081
12	0xbdae8174	-0.08520785
13	0x3d632386	0.0554538
14	0xbc2287fa	-0.009920115
15	0x3d9649ad	0.07338271
16	0xbc378386	-0.011200791
17	0x3d0be141	0.034150366
18	0xbf11368b	-0.5672385
19	0x3ce83b5c	0.028348617
20	0xbd25e262	-0.0404991
21	0x3df97a20	0.121814966
22	0x3d8107e0	0.0630033
23	0x3e748bf3	0.23881511
24	0x3db88de1	0.09011436
25	0x3e368fbc	0.17828268
26	0xbee26573	-0.44218025
27	0x3d6956f0	0.056967676
28	0xbcb4d29e	-0.022073086
29	0x3d99748e	0.07492934
30	0x3c2def13	0.010616082
31	0x3e73fc10	0.23826623
32	0xbd919f28	-0.07110435
33	0x3e40304d	0.18768425
34	0xbe6ac27d	-0.22925754
35	0x3cbee6b1	0.023303362
36	0xbe58c469	-0.21168675
37	0x3d89a2d7	0.06720512
38	0xbeb5d448	-0.3551352
39	0x3d7f3540	0.062306643
40	0xbf0dee32	-0.5544158
41	0x3d79637b	0.060885888
42	0xbe6e9f92	-0.23303059
43	0x3e65c34c	0.22437781
44	0x3fb14250	1.3848362
45	0xbf9ae686	-1.21016
46	0x3f14d683	0.5813982
47	0xbe036d12	-0.12834576
48	0x3efd28e1	0.4944525
49	0x3dde0c85	0.10842232
50	0x3ecf6274	0.405048
51	0x3e1f2332	0.1554077
52	0xbf0007a7	-0.50011677
53	0xbc2de670	-0.010614023
54	0xbe807862	-0.25091845
55	0xbd1db14b	-0.038499158
56	0x3c10abf4	0.008830059
57	0xbdcac5aa	-0.09900983
58	0x3e3bdc9b	0.18345873
59	0xbd48fb1c	-0.0490676
60	0xbf866482	-1.0499423
61	0x3dab2a98	0.083577335
62	0x3d9a88ad	0.075456
63	0x3dc8572f	0.09782254
64	0x3ea310b0	0.3184867
65	0x3d9f5944	0.07780698
66	0x3ec28924	0.37995255
67	0xbd89f572	-0.06736268
68	0xbf904301	-1.1270448
69	0x3e1b8fac	0.15191525
70	0x3e375b56	0.17905936
71	0x3d7a0330	0.061038196
72	0x3f034086	0.5127033
73	0xbdf91ead	-0.12164054
74	0x3f35754b	0.708821
75	0xbe4389e6	-0.19095573
76	0xbeaaf682	-0.33391196
77	0x3e5cc8a7	0.21560918
78	0x3f0909a6	0.5353035
79	0x3e1c7e4e	0.15282556
80	0x3f47550e	0.7786416
81	0x3b9a5ad4	0.0047105346
82	0x3f77e360	0.9683132
83	0x3b248dcc	0.0025108932
84	0xbe9ce12c	-0.30640543
85	0x3e442580	0.1915493
86	0xb9b9ad8a	-0.00035415246
87	0x3eb2fd32	0.34958798
88	0x3ca4d293	0.02011994
89	0xbc23a101	-0.009987117
90	0x3d141a4c	0.03615789
91	0xbd0ab010	-0.033859313
92	0x3da7f483	0.08200934
93	0xbce56c30	-0.02800569
94	0x3bf4832c	0.007461926
95	0xbd36a4d7	-0.044590797
96	0x3aa924eb	0.0012904679
97	0xbd07b48c	-0.033131167
98	0x3ceb96da	0.028758455
99	0x3d24ef76	0.04026743
100	0x3d73579a	0.059409715
101	0x3d4dc070	0.05023235
102	0x3ab818ac	0.0014045439
103	0xbd59001c	-0.05297862
104	0xbcbf1da3	-0.023329562
105	0xbcf95238	-0.030434713
106	0xbd214d42	-0.03938032
107	0xbacf73c0	-0.0015827343
108	0xbd34fd57	-0.044186916
109	0x3bebcfb4	0.007196391
110	0xbd2e07f8	-0.04248807
111	0xbd7ccfa1	-0.061721448
112	0xbd0ff1e3	-0.03514279
113	0xbcc69472	-0.024240706
114	0xbdc6cd96	-0.09707181
115	0xbd52da79	-0.051477883
116	0xbe4e92f6	-0.20173249
117	0xc020db36	-2.5133796
118	0x3c73033c	0.014832314
119	0xbd9d83f1	-0.076911815
120	0x3c65af05	0.014018779
121	0xbc8035c1	-0.015650632
122	0x3dfe9fee	0.12432848
123	0x3e15d35c	0.14631408
124	0x3e63e620	0.22255754
125	0x3e51d915	0.20492966
126	0x3e438b64	0.19096142
127	0x3e03d9fc	0.12876123
128	0xbc4e5a6e	-0.012594802
129	0x3d9a3c88	0.07531077
130	0x3ce6e5ca	0.028185744
131	0x3e2d2e83	0.16912274
132	0x3d838119	0.06421108
133	0x3dc9e177	0.09857457
134	0x3bc2749f	0.0059343125
135	0x3db1a35f	0.08673739
136	0x3d093512	0.033497877
137	0x3e535b29	0.20640244
138	0xbd023b7a	-0.031795003
139	0x3e22dc77	0.15904413
140	0x3b822bab	0.003972491
141	0x3e2adad6	0.16685042
142	0xbbb7664d	-0.005596912
143	0x3e24ed41	0.1610613
144	0x3dbcf63f	0.09226655
145	0x3e54a5d1	0.20766379
146	0xbcc7b1f8	-0.024376854
147	0x3e480b4e	0.19535562
148	0xbbaaa837	-0.005208041
149	0x3de71447	0.112831645
150	0xbb11f7d1	-0.0022272954
151	0xbfea63b5	-1.8311678
152	0x3e0e0782	0.13870052
153	0x3e824496	0.25442952
154	0xbcd4707b	-0.025932541
155	0x3e6b4add	0.22977777
156	0x3ce16784	0.02751518
157	0x3e5da4c0	0.21644878
158	0x3d193431	0.03740329
159	0x3e56d698	0.20980299
160	0x3ddef45c	0.108864516
161	0x3e878e17	0.26475593
162	0x3d08a0cb	0.03335647
163	0x3e5fb026	0.21844539
164	0x3b640da3	0.0034798167
165	0x3e2eccc9	0.17070307
166	0xbd3e5b33	-0.046473693
167	0x3dd3ad38	0.10335773
168	0xbdf64210	-0.12024319
169	0x3e553be8	0.20823634
170	0xbd3ded59	-0.04636893
171	0xc040f063	-3.014672
172	0xbde20086	-0.11035256
173	0xbfcff47b	-1.6246485
174	0xbd63e4a4	-0.05563797
175	0xbf2ac3d6	-0.6670507
176	0x3d0b6046	0.03402736
177	0xbead216d	-0.33814564
178	0x3c9236de	0.017848428
179	0xbde3e64e	-0.111279115
180	0xbc754def	-0.014972194
181	0xbdad3166	-0.08456688
182	0x3d2be909	0.041970287
183	0x3db97cff	0.09057044
184	0x3d912ba6	0.070884034
185	0x3de74cbf	0.11293935
186	0xbc620041	-0.013794006
187	0x3d51ed8b	0.05125193
188	0x3d7abda5	0.061216015
189	0x3d86da24	0.06584576
190	0xbcbf78aa	-0.023372967
191	0x3e286787	0.16445743
192	0xbcb03269	-0.021508412
193	0x3dcba8a7	0.09944277
194	0xbd8569fb	-0.06514355
195	0x3e5cecdb	0.21574728
196	0xbd8881d3	-0.06665387
197	0x3e2dcc30	0.16972423
198	0xbd8297c4	-0.06376603
199	0x3e9346a3	0.2876483
200	0xbda9ad7e	-0.08285044
201	0x3e583aeb	0.21116225
202	0xbdcef9be	-0.10106228
203	0x3ecdf6f5	0.40227476
204	0x3d8f9b69	0.07012064
205	0x3ded9e28	0.116024315
206	0x3e6d0aad	0.23148604
207	0x3dde47a9	0.10853512
208	0x3e88ccd2	0.26718765
209	0x3dac6e10	0.0841943
210	0xbdfd14e4	-0.123575
211	0x3e23b37a	0.15986434
212	0xbeea5913	-0.45771083
213	0x3e46e211	0.19422175
214	0xbe084033	-0.1330574
215	0x3ed38fee	0.41320747
216	0x3c71a0f4	0.014747847
217	0x3ed21288	0.41029763
218	0x3e961290	0.29311037
219	0x3eb0b72c	0.3451475
220	0xbe30c8e3	-0.17264132
221	0xbd02e2a0	-0.031954408
222	0x3bc00540	0.005860001
223	0x3ba01699	0.0048855064
224	0x3df1e4fb	0.11811253
225	0xbd107f3a	-0.035277583
226	0x3e735cff	0.23765944
227	0xbd6a21b9	-0.057161067
228	0x3d90bfd8	0.07067841
229	0xbda8c990	-0.0824157
230	0xbcac1cd4	-0.02100984
231	0x3e9d597e	0.3073234
232	0xbb9d121c	-0.0047934186
233	0x3ef1fd9a	0.47263795
234	0xbd2270f7	-0.039658513
235	0x3ed340df	0.4126043
236	0x3da99da4	0.08282021
237	0xbdf3b72f	-0.11900174
238	0xbc1671ff	-0.009182452
239	0x3ea711a7	0.32630655
240	0xbccf5b82	-0.025312189
241	0x3f1cb01d	0.6120623
242	0xbd86059a	-0.06544037
243	0x3f1b81ea	0.6074511
244	0x3e8264a0	0.25467396
245	0xbe752173	-0.23938541
246	0xbb6fa22a	-0.0036565163
247	0x3e30435a	0.17213193
248	0xbe2842d0	-0.16431737
249	0x3ee094bb	0.43863472
250	0xbe50b407	-0.20381175
251	0x3e97b0d2	0.2962709
252	0x3e8d48b8	0.27594543
253	0xbe7eaf04	-0.2487145
254	0x3e8b20b8	0.271734
255	0xbf061a11	-0.52383524

sequential_10/dense_31/MatMul f4 [10, 20]
0	0x3f94b680	1.1618195
1	0x3e962e7d	0.29332343
2	0xbe776706	-0.24160394
3	0xbf05f1dd	-0.5232218
4	0x3e2142ed	0.15748186
5	0x3f5a7788	0.8533864
6	0x3f61e6e1	0.8824292
7	0x3ee2f262	0.44325548
8	0xbe03f823	-0.12887625
9	0x3f988bc6	1.1917655
10	0x3f8caf3b	1.0990976
11	0xbd4993ae	-0.049213104
12	0x3f8505b8	1.039237
13	0x3fff1293	1.9927543
14	0x3ebfb0cf	0.37439582
15	0x3eab5f93	0.33471355
16	0x3da4ca01	0.08046342
17	0x3d867e6b	0.06567081
18	0x3f311116	0.69166696
19	0x3f5727aa	0.840449
20	0xbf187406	-0.5955204
21	0xbdb82a84	-0.08992484
22	0x3f750a90	0.9571924
23	0x3fb42a7f	1.4075469
24	0x3f294cae	0.6613263
25	0x3e247b9b	0.16062777
26	0xbe7ecc74	-0.2488268
27	0x3f249c4a	0.6430098
28	0xbec1be50	-0.3784051
29	0xbef36e7c	-0.4754523
30	0xbdcf0ff2	-0.10110463
31	0x3da64afa	0.081197694
32	0xbe679a71	-0.22617508
33	0xbf0a035d	-0.5391138
34	0x3f519eef	0.8188314
35	0xbe9cf047	-0.30652067
36	0x3d73ec0a	0.059551276
37	0x3da73dcf	0.08166086
38	0x3fc45543	1.533852
39	0xbd0d353f	-0.034474608
40	0x3f26a2b0	0.6509199
41	0x3f07c9aa	0.5304209
42	0x3de633eb	0.11240371
43	0x3efc7294	0.49306166
44	0xbef36109	-0.4753497
45	0x3f0bad73	0.5456154
46	0x3eb8c43c	0.36087215
47	0x3f3b69a5	0.73208076
48	0x3d980fa9	0.07424862
49	0x3eebc1ac	0.46046197
50	0x3eadd638	0.33952498
51	0xbf5c60c1	-0.86085135
52	0xbe0a2f99	-0.1349472
53	0x3f07eed1	0.5309878
54	0xbf1a4574	-0.6026223
55	0xbe90e882	-0.2830239
56	0x3f3a8e28	0.72873163
57	0xbf3c93c6	-0.73662984
58	0xbc876eb6	-0.016532283
59	0x3ec09c91	0.3761945
60	0xbe4e67bf	-0.20156763
61	0xbd4799fd	-0.04873084
62	0x3f1ec93c	0.6202581
63	0xbef7cc61	-0.48398116
64	0xbe71ffa3	-0.23632674
65	0xbe1f457c	-0.1555385
66	0xbf1b6315	-0.6069806
67	0x3e2c57cd	0.16830368
68	0x3f2689ff	0.65054315
69	0xbd35f984	-0.04442741
70	0xbf75c0b2	-0.95997155
71	0xbf537e87	-0.8261494
72	0x40051a5d	2.079734
73	0xbdb27d49	-0.087153025
74	0xbd4b47d8	-0.049629062
75	0x3f9a0d01	1.2035218
76	0x3ec3e882	0.38263327
77	0xbe50d23f	-0.20392703
78	0x3f1874ef	0.59553427
79	0xbfa29c6f	-1.270399
80	0xbea2c590	-0.31791353
81	0xbe4be7df	-0.1991267
82	0x3dad1416	0.08451097
83	0xbe923612	-0.28556877
84	0x3f442d51	0.7663165
85	0xbe0e603e	-0.13903901
86	0xbe2121cf	-0.15735553
87	0x3efc79ee	0.49311775
88	0x3faf2eb1	1.3686124
89	0x3d96b3ab	0.07358488
90	0xbd0e9694	-0.03481157
91	0x406dae78	3.7137737
92	0x3ec0ca7c	0.37654483
93	0xbec24bb3	-0.3794838
94	0x3df220af	0.1182264
95	0x3f0f1c7c	0.5590284
96	0x3f9f678f	1.2453479
97	0x403fec93	2.9988143
98	0x3e50b53e	0.20381638
99	0xbd642a0b	-0.055704158
100	0xbe47371e	-0.1945462
101	0x3f4f3101	0.8093415
102	0xbe8b49ad	-0.27204648
103	0x3f071542	0.5276681
104	0x3f86f1ef	1.0542582
105	0x3d2b1b26	0.041773938
106	0x3d82a978	0.0637998
107	0xbe546430	-0.20741343
108	0xbdc6f2fd	-0.09714315
109	0x3ee5473a	0.44780904
110	0x3e109473	0.14119129
111	0x3f89dde5	1.0770842
112	0x3f4fd146	0.811787
113	0xbe1b59f5	-0.15171035
114	0x3f173a38	0.5907321
115	0x3d3f30a9	0.046677265
116	0x3ea9cc8e	0.33163875
117	0x3f032381	0.5122605
118	0xbe858a07	-0.2608187
119	0x3e27d366	0.16389236
120	0x3e5919c7	0.2120124
121	0x3e8ca398	0.27468562
122	0x3f51d8a9	0.8197122
123	0x3f3a471f	0.7276477
124	0xbf1c00e8	-0.6093888
125	0x3f0e9da0	0.55709267
126	0x3f817af1	1.0115644
127	0x3e6b45ec	0.22975892
128	0x3eb78588	0.35844064
129	0xbe554e32	-0.2083061
130	0x3f5d576a	0.8646151
131	0xbfd77ab3	-1.683432
132	0x3fb6b46f	1.4273814
133	0x3e99c4e1	0.3003302
134	0xbe3bd938	-0.18344581
135	0x3f9bf235	1.2183291
136	0xbe22fc01	-0.15916444
137	0xbf20922f	-0.6272306
138	0xbd881f37	-0.06646579
139	0x3f4612de	0.7737254
140	0x3e35b3ff	0.17744444
141	0x3ee081e8	0.4384911
142	0x400c4474	2.191678
143	0x3f054584	0.520592
144	0x3da8da41	0.08244754
145	0xbee04b68	-0.4380753
146	0xbfd97771	-1.6989576
147	0x3e1735ca	0.14766613
148	0x3f3ba467	0.73297733
149	0x3f262c39	0.6491123
150	0xbf959e7a	-1.1688988
151	0x3ef17689	0.47160748
152	0x3fe1e2e1	1.7647363
153	0x3e8aef09	0.27135494
154	0x3d72d5fb	0.0592861
155	0x3fd4b426	1.6617477
156	0x3eceb267	0.40370485
157	0x3f047f21	0.51756483
158	0xbd4c2a9a	-0.049845316
159	0xbf7d144f	-0.98859113
160	0xbea811c5	-0.32826057
161	0x3f5f3f53	0.87206
162	0x3f618496	0.88092935
163	0x3f7fda8b	0.99942845
164	0x3ccd3a8f	0.025052337
165	0xbec81629	-0.39079407
166	0xbf5aa3d4	-0.8540623
167	0xbf7b02c3	-0.9805109
168	0x3e959348	0.2921393
169	0x3f9424a7	1.1573685
170	0xbf3ab002	-0.72924817
171	0xbe543958	-0.20725
172	0x3d0428bd	0.032265414
173	0xbe9fde99	-0.31224516
174	0x3f2a6f03	0.6657564
175	0xbd618da1	-0.05506671
176	0x3eb3f2bc	0.3514613
177	0x3e0926cc	0.13393706
178	0x403376fb	2.804137
179	0xbf88856e	-1.066572
180	0x3fab6fb8	1.3393469
181	0x3f9244f0	1.1427288
182	0x3d66676e	0.056250982
183	0xbfdf0f8d	-1.7426621
184	0x3f715bf5	0.9428094
185	0x3f24b1c1	0.6433373
186	0x3dbe7caa	0.093011215
187	0x3e5d5f84	0.21618468
188	0x3f8eb0a8	1.1147661
189	0x3e7cbce7	0.24681436
190	0xbd035a0a	-0.03206829
191	0x3f97e6b8	1.1867285
192	0x3edda96e	0.43293327
193	0x3f106fb6	0.5642046
194	0x3f1bfe9c	0.6093538
195	0x3e96ff83	0.29491815
196	0x3f8b3e86	1.0878456
197	0x3f76d422	0.9641744
198	0x3f1e49f9	0.61831623
199	0x3d6e49ec	0.058175966

sequential_10/dense_32/MatMul f4 [27, 10]
0	0x3e3c6fd7	0.18402039
1	0xbf18fcdc	-0.5976083
2	0x3ec86439	0.39138964
3	0x3d3d4430	0.046207607
4	0xbf70108f	-0.93775266
5	0xbee7bc29	-0.45260742
6	0x3e9c5191	0.3053098
7	0x3f6ad90a	0.91737425
8	0xbeda1a63	-0.42598256
9	0xbfc570a0	-1.5424995
10	0xbd01bff8	-0.031677216
11	0xbeaf5b68	-0.34249425
12	0xbdbb214b	-0.091372095
13	0xbf7e9f2f	-0.99461645
14	0x3f00c22a	0.5029627
15	0xbe3ca346	-0.18421659
16	0xbe159cbd	-0.14610572
17	0x3eaa1208	0.33216882
18	0xbf49d0d4	-0.7883427
19	0x3f03c274	0.51468587
20	0xbf39b97b	-0.72548646
21	0x3c1c8939	0.009554201
22	0xbfd383b3	-1.6524566
23	0x3efb0e21	0.49034217
24	0xbf5c0450	-0.8594408
25	0x3dc07efe	0.09399222
26	0x3f526d9a	0.8219849
27	0xbe13eb65	-0.14445265
28	0x3f2169fb	0.6305234
29	0xbf89e2ba	-1.0772316
30	0xbe70b9b9	-0.23508348
31	0xbf6aaa0a	-0.9166571
32	0xbe40440e	-0.18775961
33	0x3e8c1dd8	0.2736652
34	0xbf82da86	-1.0222938
35	0xbf2841be	-0.65725315
36	0x3eca3716	0.39495152
37	0x3ea3b951	0.31977323
38	0x3f232d8c	0.63741374
39	0x3e0ade11	0.13561274
40	0xbe0cd15e	-0.13751742
41	0xbf0ed702	-0.55796826
42	0xbf54bd38	-0.83101225
43	0x3ea9490a	0.33063537
44	0xbf90dba9	-1.1317035
45	0x3d2e1053	0.042496037
46	0xbf326c25	-0.69696265
47	0xbe11f7a5	-0.14254625
48	0x3f1aacb2	0.6041976
49	0x3ec8d177	0.3922231
50	0xbec602c5	-0.38673988
51	0xbdebc707	-0.11512571
52	0xbd8411d6	-0.064487144
53	0x3e571fe0	0.21008253
54	0x3da40563	0.0800884
55	0xbec7fd25	-0.3906032
56	0x3e72cce2	0.23710969
57	0x3e338650	0.17531705
58	0xbdcd888b	-0.10035809
59	0xbd1b4dc8	-0.037915975
60	0xbee6a743	-0.45049486
61	0xbdd42d31	-0.10360182
62	0xbe9c656d	-0.30546132
63	0x3eae01f3	0.33985862
64	0xbf580682	-0.8438493
65	0xbbba6ea8	-0.005689461
66	0x3f132ac2	0.5748712
67	0x3ebe87eb	0.37213072
68	0xbe456c4e	-0.19279596
69	0xbfbd4f07	-1.4789742
70	0x3da89d1f	0.082330935
71	0xbeb16456	-0.34646863
72	0x3ef122af	0.47096774
73	0xbd30ad9b	-0.043134313
74	0xbf1ffeb2	-0.6249801
75	0xbe99e3a4	-0.3005649
76	0xbf1a9f18	-0.6039901
77	0xbec2e8df	-0.38068292
78	0x3d1075e1	0.035268668
79	0x3ec376ef	0.38176677
80	0x3e7d9f7c	0.2476787
81	0x3e22e3b4	0.15907174
82	0xbdaf36f8	-0.08555406
83	0xc0586339	-3.381056
84	0xbf94895f	-1.1604422
85	0x3f521688	0.8206563
86	0xbdddac3f	-0.10823869
87	0xbf998f3f	-1.199684
88	0xbe44d948	-0.19223511
89	0xbcbd0258	-0.023072407
90	0xbf2f5577	-0.68489784
91	0xbf43745b	-0.7634942
92	0xbf1dc8a6	-0.6163429
93	0x3ec4e5b9	0.38456514
94	0x3eb340be	0.35010332
95	0x3f1a60da	0.60304034
96	0x3ce15f0d	0.027511144
97	0x3e01b25e	0.12665698
98	0xbf46ef16	-0.77708566
99	0xbe883809	-0.2660525
100	0x3e092409	0.13392653
101	0xbf49933f	-0.78740305
102	0xbf3dba2f	-0.7411222
103	0xbe8aedbe	-0.27134508
104	0x3c247eb0	0.01003997
105	0x3f1cd348	0.6125989
106	0xbe1e1a9f	-0.15439843
107	0x3ebf7341	0.3739262
108	0xbeb7d7c3	-0.359068
109	0x3efc3ff2	0.49267536
110	0xbfb79c3b	-1.4344553
111	0x3ec6ad69	0.38804176
112	0xbf1a159a	-0.6018921
113	0xbf8061b3	-1.0029815
114	0x3ea422f9	0.32057932
115	0x3f11c78d	0.56945115
116	0xbfa197f4	-1.2624497
117	0xbf2b3f03	-0.66893023
118	0x3f4c32ef	0.7976522
119	0xbf1369ed	-0.57583505
120	0x3f1b9d19	0.60786587
121	0x3e986f02	0.29772192
122	0xbeb91bdc	-0.36154068
123	0xbe10fc7b	-0.14158814
124	0xbf16d85c	-0.5892389
125	0xbf609e0e	-0.8774117
126	0xbfb59729	-1.4186755
127	0xbfb5c5b3	-1.4200958
128	0xbdebd88b	-0.11515912
129	0x3f33352c	0.7000301
130	0xbf94d5e0	-1.162777
131	0xbdf6b3a8	-0.120459855
132	0x3ea39ef8	0.3195722
133	0xbebacf3b	-0.3648623
134	0x3f2d7bd1	0.67767054
135	0xbdfd76b1	-0.12376154
136	0xbeeed4fc	-0.4664687
137	0x3ea3cb40	0.31991005
138	0xbf4d1f3f	-0.801258
139	0x3d5be6c4	0.053686872
140	0xbf7fc1b0	-0.9990492
141	0xbea1270d	-0.31475106
142	0x3e69341a	0.22773781
143	0xbf0e5ec7	-0.5561337
144	0x3f466370	0.7749548
145	0xbe2ae81c	-0.16690105
146	0x3e33024e	0.17481348
147	0xbf31c065	-0.69434196
148	0xbf49db47	-0.78850216
149	0x3f090f2f	0.53538793
150	0xbe9860cb	-0.29761347
151	0xbf5464a8	-0.8296609
152	0x3ecb3fbc	0.39697063
153	0xbecc1290	-0.39857912
154	0xbe36d01f	-0.1785283
155	0x3e24bb5a	0.16087094
156	0x3daa0551	0.08301795
157	0x3f1c4a9c	0.61051345
158	0x3d851ee5	0.06500033
159	0x3d2d8a70	0.042368352
160	0x3ec71692	0.38884407
161	0x3ed0ac0b	0.40756258
162	0xbb865df9	-0.004100558
163	0xc0117857	-2.27297
164	0xbe4eb7a0	-0.20187235
165	0xbf8aeec4	-1.0854115
166	0x3f18858b	0.5957877
167	0xbef6edc9	-0.4822829
168	0xbefc92ef	-0.4933085
169	0xbd9a5070	-0.075348735
170	0x3ea96978	0.3308828
171	0x3e6c4dd0	0.23076558
172	0x3f0b9248	0.5452008
173	0xc0343b6d	-2.816127
174	0xbe9d6ef0	-0.307487
175	0xbee76596	-0.4519469
176	0x3e9e1843	0.30877885
177	0xbf1250c6	-0.571545
178	0xbe20777c	-0.1567058
179	0xbe86b55f	-0.2631025
180	0xbf9c1df4	-1.2196641
181	0x3f811868	1.0085573
182	0xbf365cd6	-0.71235406
183	0x3be10ab7	0.0068677324
184	0xbfaf00d7	-1.3672131
185	0x3d3adbb3	0.045619678
186	0xbf49357c	-0.78597236
187	0xbf86ec50	-1.0540867
188	0x3ea4bc97	0.32175133
189	0xbf4d3dea	-0.801726
190	0xbf634105	-0.88771087
191	0x3e044e00	0.1292038
192	0xbed82f02	-0.42223364
193	0x3e91c42d	0.28469983
194	0x3efbd0e6	0.49182814
195	0x3d9dc571	0.077036746
196	0xbf48e824	-0.7847922
197	0x3f132706	0.5748142
198	0xbf133e4f	-0.5751695
199	0xbe13cca7	-0.14433537
200	0xbea2aafa	-0.3177107
201	0xbf18f140	-0.5974312
202	0xbee48fb1	-0.44640878
203	0xbf8adfab	-1.0849508
204	0x3f0fc795	0.56163913
205	0x3e8071e0	0.2508688
206	0xbfa25a09	-1.2683727
207	0xbf9ce60c	-1.2257705
208	0x3f318c24	0.6935446
209	0x3eb70c93	0.3575178
210	0xbf804515	-1.0021082
211	0x3f2ceb7d	0.67546827
212	0xbf136801	-0.5758057
213	0xbdff29e2	-0.124591604
214	0xbf98d455	-1.1939799
215	0x3edc6731	0.4304748
216	0xbf447516	-0.7674116
217	0xbf8a6952	-1.0813391
218	0x3f0277e8	0.5096421
219	0xbf763213	-0.9617016
220	0xbf397aa2	-0.7245275
221	0x3f789f37	0.9711794
222	0xbeb63785	-0.35589233
223	0xbe1c5983	-0.15268521
224	0xbfa58f51	-1.2934362
225	0x3eaf60f2	0.3425365
226	0xbf72e074	-0.9487374
227	0xbf8f2936	-1.1184452
228	0x3e973c4e	0.29538196
229	0xbf77317b	-0.96559876
230	0xbf829f57	-1.0204877
231	0x3f17bbe7	0.5927109
232	0xbfccee9a	-1.6010315
233	0x3ec5cb0b	0.38631472
234	0xbfaea90b	-1.3645338
235	0xbeaaa959	-0.33332327
236	0x3de9f1b6	0.11423056
237	0xbd55979b	-0.052146535
238	0x3ede207e	0.43384165
239	0xbf8bc0cb	-1.0918211
240	0xbd6acd6b	-0.057324808
241	0xbf26d635	-0.65170604
242	0xbeda7d5b	-0.42673764
243	0xbe5c2bb4	-0.21501046
244	0xbcbf777c	-0.023372404
245	0x3b753571	0.0037415887
246	0xbfcacd97	-1.5843991
247	0xbf6d9e5a	-0.9281975
248	0x3f18adf5	0.5964044
249	0x3f200493	0.6250698
250	0x3ea2dc44	0.31808674
251	0xbf556451	-0.83356196
252	0xbf1ebb70	-0.62004757
253	0xbde42932	-0.1114067
254	0x3ec825bd	0.39091292
255	0x3eb10a2c	0.34578073
