model/keypoint_classifier/keypoint_classifier.tflite (tflite, 7280 bytes, 6 tensors)

sequential/dense/BiasAdd/ReadVariableOp/resource f4 [20]
0	0xbd4c1ea0	-0.049833894
1	0xbf141d98	-0.57857656
2	0xbf703882	-0.93836224
3	0x3e9c6221	0.30543616
4	0xbf25d4f7	-0.64778084
5	0xbe167bc1	-0.14695646
6	0xbf94297a	-1.1575158
7	0xbf7a486a	-0.97766745
8	0x3eaac75f	0.33355233
9	0xbe525181	-0.20538904
10	0xbf1b7f3a	-0.6074101
11	0x3f9de2c8	1.2334833
12	0xbf7a3187	-0.9773182
13	0xbfc48e69	-1.535596
14	0xbfaa2020	-1.3291054
15	0x3e2e1cdf	0.17003201
16	0xbf4e36da	-0.80552447
17	0x3fbcaf7d	1.4741055
18	0xbec06e2c	-0.37584054
19	0xbf40a8b0	-0.75257397

sequential/dense_1/BiasAdd/ReadVariableOp/resource f4 [10]
0	0x3f98e370	1.1944408
1	0x3f44c452	0.7686206
2	0x3f7ef3e0	0.99590874
3	0x3edc5b32	0.43038327
4	0x3f314ff2	0.6926261
5	0x3fac11bf	1.3442916
6	0x3f1c0f01	0.60960394
7	0x3f153b50	0.5829363
8	0xbeae830e	-0.34084362
9	0x3fdc55e9	1.7213718

sequential/dense_2/BiasAdd/ReadVariableOp/resource f4 [27]
0	0xbebc3335	-0.36757818
1	0xbe4cb5db	-0.19991247
2	0x3e95b106	0.2923662
3	0xbf7a1355	-0.9768575
4	0x3f686930	0.90785503
5	0x3f0c59d3	0.5482456
6	0x3e7df3bb	0.24800007
7	0x3eb42fca	0.3519271
8	0x3f5896a5	0.84604865
9	0x3f6983e3	0.9121687
10	0xbf2b0137	-0.6679873
11	0xbc636b31	-0.013880537
12	0x3e8727c1	0.26397517
13	0xbe7b0668	-0.24514163
14	0xbe0cf421	-0.13765003
15	0xbf64f845	-0.8944133
16	0xbf6406f5	-0.89073116
17	0xbf3d309e	-0.7390231
18	0xbe8b455e	-0.2720136
19	0xbe3f1604	-0.18660742
20	0xbe855e19	-0.26048353
21	0x3f0ca94c	0.54945827
22	0x3f1464a1	0.5796605
23	0x3e01a7e3	0.126617
24	0x3cde6b80	0.02715087
25	0xbe11e6ed	-0.14248247
26	0x3cbb1e81	0.022841694

sequential/dense/MatMul f4 [20, 42]
0	0xbdee012c	-0.11621317
1	0x3e3cca54	0.18436557
2	0x3ee23899	0.44183806
3	0xbedec91f	-0.43512818
4	0x3e5c62b2	0.21522024
5	0x3cc0ee9b	0.023551276
6	0x3dbd6379	0.092474885
7	0xbeb43a8b	-0.35200915
8	0x3e0123d1	0.12611319
9	0xbe068bf8	-0.13139331
10	0x3e154208	0.1457597
11	0x3edb4d5e	0.42832464
12	0x3e0b2ddf	0.13591717
13	0x3e97ad8a	0.29624587
14	0xbe078c67	-0.13237153
15	0x3e878fee	0.26476997
16	0x3df10041	0.117676266
17	0xbe646daf	-0.22307466
18	0x3ee043cf	0.43801734
19	0x3f059644	0.5218241
20	0xbeac7086	-0.336796
21	0x3e48f718	0.19625509
22	0xbe6c2b1f	-0.23063324
23	0x3f04b5e0	0.5184002
24	0xbeff56f8	-0.4987104
25	0x3fa96791	1.3234731
26	0x3bbcd098	0.005762171
27	0x3f1da1a6	0.6157478
28	0xbe8f71db	-0.28016552
29	0x3f173afc	0.5907438
30	0xbebff68a	-0.37492782
31	0x3ec92464	0.39285576
32	0xbed3c9e1	-0.4136496
33	0x3efc1699	0.4923599
34	0xbc9cb272	-0.019128058
35	0x3f170d9b	0.59005135
36	0xbed6bbef	-0.41940257
37	0x3f212155	0.62941486
38	0xbefaa34e	-0.48952717
39	0x3ed92610	0.42411852
40	0xbea7484d	-0.3267235
41	0x3eb1f03f	0.34753606
42	0xbc981280	-0.018563509
43	0xbdeb20cc	-0.11480865
44	0xbe07c7ad	-0.13259764
45	0xbdb3b462	-0.0877464
46	0x3e9c5bbb	0.30538735
47	0xbe63fa66	-0.22263488
48	0xbd96c7fd	-0.073623635
49	0xbeeae453	-0.45877323
50	0xbd773dcb	-0.060361665
51	0xbebc2972	-0.3675037
52	0x3e714ab4	0.23563653
53	0x3f3f1845	0.7464641
54	0x3eccf302	0.4002915
55	0x3f024862	0.508917
56	0x3e90595f	0.28193185
57	0x3e8320d3	0.2561098
58	0x3e26b3e6	0.16279563
59	0x3ea4c604	0.32182324
60	0x3e26a43c	0.16273588
61	0x3f42d042	0.76099026
62	0x3ccb6206	0.024827015
63	0x3ed6f2b4	0.41982043
64	0x3c67da88	0.014151223
65	0x3f6867dc	0.90783477
66	0x3e5bbbe4	0.21458393
67	0x3f889d0e	1.0672929
68	0x3eca149e	0.39468855
69	0x3f330a7e	0.69937885
70	0xbec73c3c	-0.38913143
71	0x3f12abc8	0.5729337
72	0x3c6d14e0	0.014470309
73	0x3f18cdc2	0.5968896
74	0xbde494ff	-0.11161231
75	0x3e388778	0.18020427
76	0x3e583aba	0.21116152
77	0x3f6e8bba	0.93181956
78	0xbed6e461	-0.41971114
79	0x3f259712	0.6468364
80	0xbe826fa3	-0.25475797
81	0x3f49a40d	0.78765947
82	0xbe2c0d6f	-0.16802
83	0x3ec31879	0.3810461
84	0xbe31e5fd	-0.1737289
85	0x3e56f034	0.20990068
86	0x3b87523a	0.004129675
87	0x3eb0e742	0.34551436
88	0xbc0f5595	-0.008748432
89	0x3d8f894e	0.07008611
90	0x3d3546d3	0.044256996
91	0x3cd57dfa	0.026061047
92	0x3d865ae0	0.06560302
93	0x3d3b4327	0.04571834
94	0xbd4fc586	-0.050725482
95	0xbcdc187d	-0.026867146
96	0xbbfebb5e	-0.0077738008
97	0xbc7e94f2	-0.015538441
98	0xbbf901d3	-0.0075990944
99	0x3cf6e2a0	0.03013736
100	0x3ba3e25d	0.00500135
101	0x3d0fa271	0.035067026
102	0xbd5dca18	-0.05414781
103	0xbcf7e042	-0.030258302
104	0xbc2c10c3	-0.010502043
105	0xb9a0168e	-0.00030534383
106	0x3cb6f358	0.022332832
107	0x3d614091	0.054993216
108	0xbc62df41	-0.013847173
109	0x3dc5c680	0.096570015
110	0xbcbe052c	-0.023195826
111	0xbd01336b	-0.031543177
112	0x3d739ae6	0.059473895
113	0xbc8b9ce4	-0.017042585
114	0x3d62712f	0.05528372
115	0x3c4fce8a	0.01268352
116	0xbe292d5d	-0.16521211
117	0xc00b4962	-2.176354
118	0xbc183e0f	-0.00929214
119	0xbd07c78a	-0.03314928
120	0xbc3fbe3e	-0.011703072
121	0xbd21745b	-0.039417606
122	0x3d3776f8	0.04479119
123	0xbd1bcea7	-0.038038876
124	0xbc1b38e6	-0.009474015
125	0x3d0618f2	0.032738633
126	0xbe240f1d	-0.1602139
127	0xbe139276	-0.14411339
128	0xbcd86cba	-0.026419032
129	0x3e82c5d6	0.25541562
130	0x3c84288e	0.01613262
131	0x3e82fba7	0.2558262
132	0x3d037061	0.032089595
133	0x3e68fbab	0.22752254
134	0x3d418bfc	0.04725264
135	0x3e597057	0.2123426
136	0xbca4dd90	-0.02012518
137	0x3e58483e	0.21121308
138	0xbd53c2aa	-0.051699318
139	0x3e41efe7	0.18939172
140	0xbd278f68	-0.040908247
141	0x3e31be51	0.17357756
142	0x3ac60c0f	0.0015109795
143	0x3e32aeee	0.17449543
144	0x3d80517e	0.062655434
145	0x3e5ee334	0.21766359
146	0xbc70e6a5	-0.014703427
147	0x3e4117a4	0.18856674
148	0xbb411464	-0.0029461617
149	0x3dc892ca	0.09793623
150	0xbd9429ea	-0.07234557
151	0xc00df5b2	-2.218121
152	0x3de4bd9f	0.1116898
153	0x3e81a9c6	0.2532484
154	0x3ca0935e	0.01960152
155	0x3e5c09dd	0.21488138
156	0xbc604fe8	-0.013690926
157	0x3e7df7e7	0.24801598
158	0xbd6fd882	-0.058556087
159	0x3e57ae24	0.21062523
160	0x3e17646c	0.14784402
161	0x3ea7ed0e	0.32798046
162	0x3dab4892	0.08363451
163	0x3e8b0f09	0.27159908
164	0x3d5156bb	0.051108103
165	0x3e6c550b	0.23079316
166	0xbcd63306	-0.026147377
167	0x3e26e3c1	0.16297819
168	0xbd98e24a	-0.07465036
169	0x3e5cebe0	0.21574354
170	0x3ece9b41	0.40352824
171	0xbe809a06	-0.2511751
172	0x3dc71f38	0.097227514
173	0xbc3fb560	-0.011700958
174	0x3eaf5c79	0.3425024
175	0x3d278273	0.04089589
176	0x40153c66	2.3318114
177	0x3cb749f1	0.022374125
178	0xbeb15eb0	-0.34642553
179	0x3d16c276	0.036806546
180	0xbe0ba804	-0.13638312
181	0x3cb307e8	0.021854356
182	0xbe00974c	-0.12557715
183	0xbb53db56	-0.003232678
184	0xbdecebfb	-0.11568447
185	0xbd5d603c	-0.054046854
186	0xbf1407b4	-0.57824254
187	0x3d755df0	0.05990404
188	0xbd474c0d	-0.048656512
189	0x3d886b3d	0.06661079
190	0xbd30f772	-0.043204732
191	0x3dffccfe	0.12490271
192	0xbcac77da	-0.021053243
193	0xbc756fb4	-0.014980245
194	0xbede56a5	-0.4342548
195	0x3d442e26	0.047895573
196	0xbd08b66d	-0.0333771
197	0x3ca8eaac	0.020619713
198	0xbc85e951	-0.016346605
199	0x3952cf7e	0.00020104458
200	0xbd174b19	-0.036936853
201	0xbdc310a6	-0.0952466
202	0xbc56b6ee	-0.013105137
203	0x3d530686	0.051519893
204	0xbdcd69c0	-0.10029936
205	0xbc232e13	-0.009959715
206	0xbe86a7dd	-0.26299945
207	0xbe01b7b8	-0.1266774
208	0xbf0c682d	-0.5484646
209	0xbd83c269	-0.06433565
210	0x3ded1b70	0.11577499
211	0xbe930767	-0.28716585
212	0x3d599ef6	0.053130113
213	0xc01d77bb	-2.4604328
214	0xbc147ca4	-0.00906292
215	0xbf76ad81	-0.96358496
216	0x3c79d015	0.0152473645
217	0xbf4607db	-0.77355736
218	0x3d864f29	0.06558067
219	0xbf0b6028	-0.544436
220	0x3e1e1763	0.15438609
221	0xba342bbe	-0.0006872973
222	0x3d835373	0.06412401
223	0x3d3445ff	0.044012066
224	0xbd095801	-0.033531193
225	0x3e1c4ecd	0.15264435
226	0xbcc844d2	-0.024446879
227	0x3e2caae0	0.16862059
228	0x3e90d090	0.2828412
229	0x3d7dc7c6	0.061958097
230	0x3d3a5775	0.04549356
231	0x3de5506e	0.11196981
232	0x3d9292b9	0.071568914
233	0x3e528c5b	0.20561354
234	0x3c88394b	0.016628882
235	0x3da8c180	0.08240032
236	0x3dd53c0d	0.104118444
237	0x3e0afc87	0.13572894
238	0xbe2eb827	-0.17062436
239	0x3e15ed05	0.14641197
240	0xbdb46f10	-0.08810246
241	0x3e706057	0.2347425
242	0xbd8077d6	-0.06272857
243	0x3e273b21	0.1633115
244	0xbcb40a2c	-0.021977507
245	0x3e7b2717	0.2452663
246	0xbd4d7752	-0.05016262
247	0x3d4e6fe1	0.050399665
248	0x3c4afdc4	0.012389604
249	0xbd9dc86f	-0.07704245
250	0x3e62fee9	0.22167553
251	0xbe25b87f	-0.16183661
252	0x3b86a080	0.0041084886
253	0x3e3595a6	0.17732868
254	0xbf923b79	-1.14244
255	0x3f15a0bd	0.5844839

sequential/dense_1/MatMul f4 [10, 20]
0	0xbefd746d	-0.49502888
1	0xbeedad61	-0.4642134
2	0x3f172c73	0.590522
3	0xbe904e64	-0.28184807
4	0x3f28d0de	0.65943706
5	0xbed4b37e	-0.41543192
6	0xbec2ebe8	-0.38070607
7	0x3f3119a6	0.6917976
8	0xbe1f29d0	-0.15543294
9	0x3f5d979b	0.86559457
10	0x3f296918	0.66175985
11	0xbe52538a	-0.2053968
12	0xbdfeefd1	-0.12448085
13	0x3dcfc169	0.10144312
14	0x3f12bcca	0.5731932
15	0xbb4f617c	-0.0031643799
16	0x3fb8eb05	1.4446722
17	0xbe340ebf	-0.1758375
18	0xbea6e916	-0.32599705
19	0x3fa668e7	1.3000764
20	0x3f48ccc4	0.7843745
21	0x3f78abdd	0.9713724
22	0xbef39b00	-0.47579193
23	0x3e0788d2	0.13235787
24	0x3e5e316e	0.21698543
25	0x3e1b729d	0.1518044
26	0x3f3cd15e	0.7375697
27	0xbe8df729	-0.2772763
28	0x3f8d932f	1.1060542
29	0x3ec44742	0.38335615
30	0x3e8b8b6d	0.2725481
31	0x3f92c754	1.146708
32	0xc02eba73	-2.73013
33	0x3e22d043	0.15899758
34	0x3ea9bfcb	0.3315414
35	0xbe1c9d4f	-0.15294383
36	0x3dfb8960	0.122820616
37	0x3f45a16d	0.7719944
38	0x3f8a8d5c	1.082439
39	0x3f7f53d9	0.99737316
40	0xbf8a318a	-1.0796368
41	0xbf5c09c4	-0.859524
42	0x3e8ef685	0.27922454
43	0xbf7b7834	-0.9823029
44	0x3f994ef7	1.1977223
45	0x3d5f9161	0.054582004
46	0x3ff1b8fd	1.8884579
47	0x3eb16377	0.34646198
48	0x3e0b669c	0.13613361
49	0xbeef9d1c	-0.46799552
50	0x3fbdf096	1.4839046
51	0xbe5e7fb4	-0.21728402
52	0xbe5778e3	-0.21042208
53	0x3f3df90c	0.7420814
54	0x3f96e60d	1.1788956
55	0x3daecb02	0.085348144
56	0xbf065911	-0.52479655
57	0xbd0c23a5	-0.03421368
58	0xbf1c9f8d	-0.61180955
59	0xbf3b7b87	-0.7323536
60	0x3f832f71	1.0248853
61	0x3ed1b00c	0.40954626
62	0xbd0093cc	-0.03139095
63	0xbf0af14d	-0.54274446
64	0x3f658d53	0.8966877
65	0xbe0d1bd4	-0.13780147
66	0xbedf4c25	-0.4361278
67	0x3c6e8370	0.014557704
68	0xbe6153be	-0.22004601
69	0x3ed05ca9	0.40695694
70	0x3ee9c81e	0.4566049
71	0x3f54507d	0.82935315
72	0xbe179b94	-0.14805442
73	0x3ec4e7c4	0.38458073
74	0x3ef61b19	0.4806755
75	0x3eb0e773	0.34551582
76	0x3efaefe1	0.49011138
77	0x3f537b3b	0.8260991
78	0x3eedc131	0.46436456
79	0x3f0cc7e2	0.54992497
80	0x3e3a3a69	0.18186344
81	0xbe01420a	-0.12622848
82	0xbecc81b1	-0.39942697
83	0x3dcff5d7	0.10154312
84	0x3f4bfa67	0.7967896
85	0x3fd1e50f	1.6398028
86	0x3e8aa341	0.27077678
87	0xbf7ffa4a	-0.99991286
88	0x3d4d0e01	0.050062183
89	0x3e145eef	0.1448934
90	0x3f2ecac0	0.6827812
91	0x3dcc8a35	0.099872984
92	0x3efdc8a4	0.4956714
93	0x3ec494a6	0.3839466
94	0x3d9601d7	0.0732457
95	0x3f9ecaff	1.24057
96	0x3e8c6410	0.27420092
97	0xbc4d7eb8	-0.012542419
98	0x3dd9e871	0.10640038
99	0x3f8ad132	1.0845091
100	0xbebba718	-0.3665092
101	0xbd88eb50	-0.06685507
102	0x3fc484c2	1.5353014
103	0x3fd19659	1.6374007
104	0xbe9aa771	-0.30205873
105	0xbe7c6a89	-0.24650015
106	0x3b137d4f	0.002250511
107	0x3fdc64e5	1.721829
108	0xbdc16f87	-0.094451
109	0xbe4b8206	-0.19873819
110	0xbe9355e1	-0.28776458
111	0xbe9dd413	-0.30825862
112	0x3eb3206f	0.34985682
113	0xbe561dac	-0.20909756
114	0x3e161fc4	0.14660555
115	0xbdc2811c	-0.09497282
116	0xbf0f04a6	-0.5586647
117	0xbdf35fd7	-0.118835144
118	0xbe31e1b2	-0.17371252
119	0x3fb70eda	1.4301407
120	0x3dd6355e	0.10459398
121	0xbdfb0a30	-0.122578025
122	0xc004abb9	-2.072981
123	0x402e1ccc	2.7205076
124	0xbee287ee	-0.4424433
125	0x3e731ac3	0.23740678
126	0x3efa67af	0.4890723
127	0x3fd32002	1.6494143
128	0x3e4fb72e	0.20284721
129	0x3f0e7000	0.5563965
130	0xbe91563c	-0.28386104
131	0x3f1c7c0e	0.6112679
132	0x3e53a110	0.20666909
133	0xbc290fe7	-0.010318733
134	0x3d0195bb	0.031636935
135	0x3ee9a11a	0.45630723
136	0x3ed5f5b9	0.41789034
137	0x3f048842	0.5177041
138	0x3e0aefd6	0.13568053
139	0x3e0fd52e	0.14046165
140	0xbf15f967	-0.5858368
141	0xbec269f9	-0.37971476
142	0x3f1832f3	0.5945274
143	0xbebda905	-0.37043014
144	0x3e58823d	0.21143432
145	0x3f82ab54	1.0208535
146	0x3eff8183	0.49903497
147	0x3f21a864	0.6314757
148	0x3f26201e	0.64892757
149	0x3f299d25	0.6625541
150	0xbe6c50cd	-0.23077698
151	0xbe38c5c5	-0.18044193
152	0x4025825c	2.5860815
153	0x3fd64325	1.6739241
154	0x3f6da40b	0.92828435
155	0x3e5194aa	0.20466867
156	0x3f36c1bc	0.71389365
157	0xbf738a28	-0.95132685
158	0x3f3c7452	0.7361499
159	0x3c384234	0.011246253
160	0x3eb7ba0f	0.3588414
161	0x3f553af2	0.8329307
162	0x400b007a	2.171904
163	0x3f243cf0	0.64155483
164	0x3f736297	0.9507231
165	0xbca98333	-0.020692443
166	0x3ec9330a	0.39296752
167	0x3f14e6db	0.5816476
168	0x3f58675a	0.845327
169	0xbd084836	-0.03327199
170	0x3fd918b7	1.6960667
171	0x3eebaf24	0.4603206
172	0x3fdbbc3e	1.7166822
173	0x3e22dac8	0.15903771
174	0x3da99747	0.08280807
175	0xbcb62bf3	-0.022237753
176	0x3f059d84	0.52193475
177	0x3eb26006	0.34838885
178	0x3f0f0efc	0.5588224
179	0xbe36dea4	-0.17858368
180	0xbe8bd8bc	-0.27313793
181	0xbe9f6bbf	-0.3113689
182	0x3ec768cb	0.38947138
183	0xbee583e9	-0.44827202
184	0xbf562c20	-0.8366108
185	0x3f542946	0.8287548
186	0x3f6fcf0d	0.9367531
187	0x3e8e65a2	0.27811915
188	0xbf434a14	-0.7628491
189	0xbef17a0f	-0.47163436
190	0xbf4d0842	-0.80090725
191	0xbe06ef6a	-0.13177267
192	0xbf1eb49c	-0.6199434
193	0x3f800b5f	1.000347
194	0x3f619895	0.88123447
195	0x3f50e33c	0.8159673
196	0xbd10b7f2	-0.035331674
197	0xbdeaf4f3	-0.114725016
198	0xbe02de15	-0.1278003
199	0x3f523048	0.8210492

sequential/dense_2/MatMul f4 [27, 10]
0	0x3e598ee7	0.21245919
1	0xbe9d539a	-0.30727845
2	0x3e4912f6	0.1963614
3	0xbfc6b08a	-1.5522625
4	0xbf0732b0	-0.5281172
5	0x3e7c5fd4	0.2464593
6	0x3e90c3b2	0.28274304
7	0xbcdd8816	-0.02704243
8	0x3f4c3625	0.7977012
9	0xbf9ad7bb	-1.2097086
10	0xbf0dcc3b	-0.55389756
11	0xbf006e99	-0.5016876
12	0x3f465a2c	0.7748134
13	0x3df9f43d	0.12204788
14	0x3e911fcc	0.28344572
15	0xbeffe3df	-0.4997854
16	0xbf5dc1fa	-0.8662411
17	0x3e4fec3b	0.20304959
18	0xbd307220	-0.043077588
19	0x3bc45939	0.0059920815
20	0x3c9e5b88	0.019330755
21	0xbed9fa0c	-0.42573583
22	0xbf903ec8	-1.1269159
23	0xbf91275e	-1.1340139
24	0xbe657864	-0.22409207
25	0x3f5e6552	0.8687335
26	0xbd6826d3	-0.05667765
27	0x3e84518c	0.25843465
28	0x3dc222e1	0.09479309
29	0xbeb80c3b	-0.3594683
30	0x3f4582d7	0.7715277
31	0xbeebaff5	-0.46032682
32	0x3d82ae8d	0.06380949
33	0xbea17e3f	-0.3154163
34	0xbedddf6a	-0.43334514
35	0x3e8f067f	0.27934644
36	0xbc31b122	-0.010845454
37	0x3e824a24	0.2544719
38	0x3eaa5469	0.33267525
39	0xbf959133	-1.1684936
40	0x3f3d1f86	0.73876226
41	0xbf26a516	-0.6509565
42	0xbefec8ec	-0.49762666
43	0x3e4606e1	0.19338562
44	0x3e95268a	0.29130965
45	0x3e708d61	0.23491432
46	0xbebb128b	-0.36537585
47	0xbd90a1a9	-0.07062084
48	0xbeb935c6	-0.36173838
49	0xbf2eda9f	-0.6830234
50	0x3d653473	0.055958223
51	0xbef01d33	-0.46897277
52	0x3ef887c1	0.48541072
53	0xbf5074f2	-0.81428444
54	0xbf443f5e	-0.7665919
55	0x3dc9a84b	0.098465525
56	0xbe192b83	-0.14958005
57	0x3ef531e5	0.4788963
58	0x3e0b31c4	0.13593203
59	0xbe46d197	-0.1941589
60	0xbe376254	-0.17908603
61	0xbf400f82	-0.75023663
62	0xbd2d6952	-0.04233677
63	0xbf62b372	-0.8855506
64	0xbeb9b2da	-0.36269265
65	0x3f20f69b	0.6287629
66	0x3e34a703	0.17641835
67	0xbdc78606	-0.0974236
68	0x3f0f910f	0.56080717
69	0xbf866b20	-1.0501442
70	0x3f2b4477	0.66901344
71	0x3ed44ab0	0.41463232
72	0x3ec17cc3	0.37790498
73	0x3e86a368	0.26296544
74	0xbefc6cf7	-0.49301884
75	0xbf1db744	-0.61607766
76	0xbea9143f	-0.3302326
77	0xbedd74ca	-0.43253165
78	0xbe08056e	-0.13283321
79	0xbee910d1	-0.45520642
80	0xbe902811	-0.28155568
81	0x3e5eae67	0.21746217
82	0xbf5a7e13	-0.85348624
83	0x3d0cca59	0.03437266
84	0x3f5468a6	0.8297218
85	0xbf901bd4	-1.1258492
86	0x3f5b4591	0.85653025
87	0xbf6af491	-0.9177943
88	0xbf0dbd34	-0.55366826
89	0xbf35544f	-0.7083177
90	0xbf09de42	-0.53854764
91	0x3e56ce3d	0.20977111
92	0x3a9b1763	0.0011832531
93	0xbf863b3d	-1.0486828
94	0xbed0f8ad	-0.40814725
95	0x3e03d16e	0.1287286
96	0xbf70165b	-0.9378411
97	0x3f8b17c0	1.0866623
98	0xbeb6cee6	-0.35704726
99	0xbea8b528	-0.3295071
100	0x3d548cfa	0.05189226
101	0xbdcccbcb	-0.09999808
102	0x3d55030e	0.052004866
103	0xbe8d1d7d	-0.2756156
104	0x3e59667e	0.21230504
105	0xbf6a1ee3	-0.9145338
106	0x3d23cd44	0.03999068
107	0x3f34c051	0.7060595
108	0x3bd1dc75	0.0064044544
109	0xbeef6d8e	-0.4676327
110	0x3d6fdd1b	0.058560472
111	0xbf03cd6d	-0.5148533
112	0xbf8d4655	-1.1037089
113	0xbf462301	-0.7739716
114	0x3e4d887c	0.20071596
115	0x3e8bcef0	0.27306318
116	0x3f3df83a	0.7420689
117	0x3d86c797	0.065810375
118	0xbfdf1d01	-1.7430726
119	0x3e375330	0.17902827
120	0x3e5915f7	0.21199785
121	0x3f304fb0	0.68871593
122	0x3f1a9381	0.60381323
123	0xbd650b2f	-0.05591887
124	0x3f41346b	0.7547061
125	0xbeb6e696	-0.35722798
126	0xbf97fed8	-1.1874647
127	0xbfda5367	-1.7056702
128	0xbf38206a	-0.7192446
129	0xbdaaf9d1	-0.0834843
130	0xbeccc3e8	-0.39993215
131	0xbf0a9701	-0.54136664
132	0x3f1e60d9	0.6186653
133	0xbf3f8c54	-0.748235
134	0xbe80d4aa	-0.2516225
135	0xbd05e666	-0.03269043
136	0xbfa0b1b2	-1.2554228
137	0x3ee8a9c4	0.4544202
138	0xbf3ea615	-0.7447217
139	0x3ef0caed	0.4702982
140	0xbf428fd9	-0.76000744
141	0xbebbcfb4	-0.36681902
142	0x3f4e483d	0.80578977
143	0x3df9a04a	0.12188776
144	0xbdb443e7	-0.08802014
145	0xbedd1a64	-0.43184197
146	0xbef339d8	-0.4750507
147	0x3eb871b9	0.36024264
148	0xbfe26f79	-1.7690269
149	0x3e413a0a	0.18869796
150	0x3eda7667	0.4266846
151	0xbd3a275c	-0.045447692
152	0x3e1c3499	0.1525444
153	0x3ee37a2c	0.44429147
154	0xbf8db426	-1.1070602
155	0xbea73ac1	-0.32662013
156	0xbe058088	-0.13037312
157	0x3ef9f419	0.48819044
158	0x3ec1c676	0.37846726
159	0xbef9919b	-0.487439
160	0xbf8ccc35	-1.0999819
161	0x3f02f7ce	0.5115937
162	0xbeef0ee0	-0.46691036
163	0x3ecddcbc	0.4020747
164	0xbe646bb7	-0.22306715
165	0x3ebe6dd3	0.37193164
166	0x3d186d2a	0.037213482
167	0xbe82864e	-0.2549309
168	0x3e635351	0.22199751
169	0xbf87766a	-1.0583012
170	0xbf6c9958	-0.92421484
171	0x3e91ee2c	0.28502023
172	0xbf28038a	-0.656304
173	0x3e808c7f	0.2510719
174	0x3e3760b4	0.17907983
175	0xbe513235	-0.20429309
176	0x3e8b295c	0.27179992
177	0xbec6de5d	-0.38841525
178	0x3f1edabb	0.62052506
179	0xbfb328fd	-1.3996884
180	0xbdc24574	-0.094859034
181	0xbe057646	-0.13033399
182	0xbdf2c4fb	-0.11853977
183	0xbe9c97f0	-0.3058467
184	0xbf364db9	-0.71212345
185	0x3eede80b	0.46466097
186	0x3f4686c4	0.77549386
187	0xbfd67a4c	-1.6756072
188	0xbf8bcaa1	-1.0921212
189	0x3f647929	0.89247376
190	0xbec355b8	-0.38151336
191	0xbfbf38e7	-1.493924
192	0x3f0128d3	0.5045292
193	0xbf97f4ac	-1.1871543
194	0xbe86e368	-0.26345372
195	0x3ecb4159	0.39698294
196	0xbf101f58	-0.56297827
197	0x3f0e1775	0.5550454
198	0xbef991f7	-0.48744175
199	0x3f1d3d25	0.61421424
200	0x3f1a0b9a	0.6017395
201	0xbebd379c	-0.3695649
202	0xbf22a010	-0.63525486
203	0x3ed0fd3b	0.408182
204	0x3e95bb20	0.29244328
205	0xbf85e080	-1.0459137
206	0xbf702e75	-0.9382089
207	0x3db6b618	0.089214504
208	0xc0147a38	-2.3199596
209	0x3f2a3d27	0.6649956
210	0x3e147d5c	0.14500946
211	0xbf37d2b4	-0.7180588
212	0xbef083c0	-0.46975517
213	0xbf33cedb	-0.7023751
214	0xbeb95d39	-0.36203936
215	0x3f0cff4d	0.5507706
216	0x3f238330	0.6387205
217	0xbfad6964	-1.3547788
218	0xbf8b80e3	-1.0898708
219	0x3f2d8b04	0.67790246
220	0x3e3e2100	0.18567276
221	0xbf5a8247	-0.8535504
222	0xbf109b59	-0.5648704
223	0x3e69f48f	0.22847198
224	0xbee5bdd2	-0.44871384
225	0x3eebf573	0.460857
226	0x3f4ba13d	0.79542905
227	0xbfed6027	-1.8544968
228	0xbf8eb224	-1.1148114
229	0x3f0bd1cb	0.54616994
230	0x3efdbcf9	0.49558237
231	0xbfa0cd8b	-1.2562727
232	0xbf4f14f9	-0.80891377
233	0xbf8e6bb1	-1.1126615
234	0xbea6661f	-0.32499787
235	0x3f5cf92f	0.86317724
236	0x3d89e92c	0.06733927
237	0xbfa57389	-1.2925884
238	0x3e1bc63e	0.15212342
239	0x3ec17619	0.37785414
240	0x3f50f26a	0.81619895
241	0xbe670ada	-0.22562733
242	0xbe8deeb2	-0.27721173
243	0x3e8ea085	0.27856842
244	0x3eb28cbc	0.34872997
245	0xbf2f580c	-0.68493724
246	0xbf6ff86a	-0.93738425
247	0xbdafebfc	-0.08589932
248	0xbf9e8682	-1.2384799
249	0x3de05767	0.10954171
250	0xbf290e87	-0.6603779
251	0xbd9f74c4	-0.07785943
252	0x3f2c6f08	0.6735692
253	0xbe900c62	-0.28134447
254	0x3e95f71b	0.2929009
255	0xbf759161	-0.95924956
