model/keypoint_classifier/keypoint_classifier.tflite (tflite, 7280 bytes, 6 tensors)

sequential/dense/BiasAdd/ReadVariableOp/resource f4 [20]
0	0xbe58f355	-0.21186574
1	0xbf278688	-0.65439653
2	0xbf494153	-0.786153
3	0x3f327556	0.6971029
4	0xbf231a0b	-0.63711613
5	0x3fc2a055	1.520518
6	0x3d817f2d	0.06323085
7	0xbf20bac0	-0.6278496
8	0x3fc0e652	1.5070288
9	0xbfa46110	-1.2842121
10	0x3ea8b2c8	0.329489
11	0xbf4595e5	-0.77181846
12	0xbf78977f	-0.97106165
13	0xbe2de1d0	-0.16980672
14	0xbf4afbf6	-0.7929071
15	0xbf0bd2c5	-0.54618484
16	0xbf955c14	-1.1668725
17	0xbf9e9b00	-1.2391052
18	0xbf544550	-0.8291826
19	0xbf86070f	-1.0470904

sequential/dense_1/BiasAdd/ReadVariableOp/resource f4 [10]
0	0xbd43fa11	-0.047845904
1	0x3f3fa09f	0.74854463
2	0x3f18d0ec	0.5969379
3	0x3f74f500	0.9568634
4	0xbf28d676	-0.6595224
5	0x3fb3b156	1.4038494
6	0x3f34d9da	0.70644915
7	0x3f01be55	0.5068105
8	0x3fcdef48	1.6088648
9	0x3f24c401	0.6436158

sequential/dense_2/BiasAdd/ReadVariableOp/resource f4 [27]
0	0x3f0854b6	0.5325426
1	0xbf170bb1	-0.59002215
2	0xbf48a04a	-0.7836958
3	0xbfad82a9	-1.3555499
4	0xbf16e9c7	-0.58950466
5	0x3ed37022	0.41296488
6	0x3f293576	0.660972
7	0xbe1a047e	-0.15040776
8	0x3f649b6b	0.8929965
9	0x3f81cd30	1.0140743
10	0xbf461a77	-0.7738413
11	0x3c735388	0.014851458
12	0xbe3ff35d	-0.1874518
13	0xbe95210c	-0.29126775
14	0x3df17bb8	0.117911756
15	0xbf4ae432	-0.7925445
16	0xbef7a66c	-0.48369157
17	0xbf993109	-1.1968089
18	0x3f5619da	0.83633196
19	0xbed184e4	-0.409217
20	0x3e765ffa	0.2406005
21	0x3f0e3c6b	0.5556094
22	0x3ed08ee4	0.40734017
23	0x3de5c72b	0.11219629
24	0xbedfec0d	-0.4373478
25	0xbf085858	-0.532598
26	0x3f1bced3	0.60862464

sequential/dense/MatMul f4 [20, 42]
0	0xbe9ddefa	-0.3083418
1	0x3e46e2b8	0.19422424
2	0xbc807c61	-0.015684308
3	0x3f0b4dc1	0.5441552
4	0xbd1bed63	-0.038068186
5	0x3ea34de6	0.3189537
6	0xbd1bc41d	-0.038028825
7	0x3e5623d7	0.2091211
8	0xbd68e194	-0.056855753
9	0x3e23a6a4	0.15981537
10	0x3cbfec0d	0.023427987
11	0x3ded692e	0.11592327
12	0x3de58790	0.11207497
13	0x3d94485f	0.07240366
14	0x3d9b7152	0.075899735
15	0x3cf79853	0.030224001
16	0x3d181f64	0.03713931
17	0xbff8e7f9	-1.9445792
18	0x3d2b3a7b	0.04180382
19	0x3dd454b3	0.103677176
20	0xbd0ffbf7	-0.0351524
21	0x3e2e4191	0.17017199
22	0xbdb31047	-0.08743339
23	0x3e8ba5a2	0.27274805
24	0xbe12648e	-0.14296171
25	0x3e6393dd	0.22224374
26	0xbc64a304	-0.013954882
27	0x3d9a7f86	0.075438544
28	0xbd38bf96	-0.045104586
29	0x3e074fc0	0.13214016
30	0xbb13f5f7	-0.0022577026
31	0x3e0167bc	0.12637228
32	0x3d2605a2	0.040532716
33	0x3d2fa800	0.042884827
34	0x3c9283c6	0.0178851
35	0x3d5dff56	0.054198585
36	0xbd12a6f2	-0.035803743
37	0x3dd61b87	0.10454469
38	0x3d2749f0	0.040841997
39	0x3df5d93b	0.12004324
40	0x3df91bb9	0.12163491
41	0xbd207216	-0.0391713
42	0x3e862c1e	0.26205534
43	0xbe1e6271	-0.1546724
44	0x3e300273	0.17188434
45	0x3f62e178	0.8862529
46	0x3d1e2a4b	0.038614552
47	0x3ea4084a	0.32037574
48	0x3bd26f71	0.0064219763
49	0x3e44be66	0.19213256
50	0xbdc0a972	-0.09407319
51	0x3e243e31	0.16039349
52	0xbe1c3e68	-0.15258181
53	0x3e092902	0.1339455
54	0xbe1a1691	-0.15047671
55	0x3dff58c9	0.12468106
56	0x3d447a2f	0.047968086
57	0x3df87f35	0.12133638
58	0x3e574b22	0.21024755
59	0xbff34c29	-1.9007617
60	0xbe619353	-0.22028856
61	0x3df3e064	0.119080335
62	0x3e0b3de4	0.13597828
63	0x3de1ba9d	0.11021922
64	0x3c134923	0.008989605
65	0x3ce62123	0.028091973
66	0xbe2cbf5f	-0.16869877
67	0xbcf0085d	-0.029300863
68	0xbe2c330d	-0.1681635
69	0x3de9438a	0.11389835
70	0x3e32d967	0.17465745
71	0x3d8d0bf5	0.06887046
72	0x3cac43aa	0.021028358
73	0x3d606ff5	0.05479427
74	0xbde2633b	-0.11054083
75	0x3d69101f	0.05690014
76	0xbc9ef514	-0.019403972
77	0x3de0ffb7	0.10986274
78	0x3e5a0a3c	0.21292967
79	0x3d0c3bd5	0.034236748
80	0x3d8e3569	0.06943781
81	0x3c35f3e2	0.0111055095
82	0xbd8b7a69	-0.06810457
83	0xbd72106d	-0.059097696
84	0xbe8e6305	-0.2780992
85	0x3def6b64	0.11690405
86	0x3f98fa25	1.1951338
87	0x3e48fb21	0.19627048
88	0x3f829c12	1.0203879
89	0x3db1a084	0.08673194
90	0x3fbb8795	1.4650751
91	0x3d141c87	0.03616002
92	0x3ff5da15	1.9207178
93	0x3d3acce5	0.04560556
94	0x3efbb167	0.49158785
95	0xbde68cc0	-0.11257315
96	0xbdb1e796	-0.0868675
97	0xbd8eac23	-0.06966426
98	0xbdd0adbc	-0.10189387
99	0xbd71a8d2	-0.05899889
100	0xbe1bc271	-0.15210892
101	0xbe1c13b6	-0.15241894
102	0x3d1db108	0.03849891
103	0xbddd9a4c	-0.108204454
104	0x3dcc7ef5	0.09985153
105	0xbd68f0ed	-0.05687039
106	0xbe39b7db	-0.18136542
107	0xbd47baba	-0.04876206
108	0xbf1dd627	-0.61654896
109	0xbc6b4ac7	-0.01436109
110	0xbe6913ae	-0.22761413
111	0xbdfb709e	-0.122773394
112	0xbe016d33	-0.12639312
113	0xbde1426b	-0.10998996
114	0xbe51d326	-0.20490703
115	0xbd62ef1b	-0.05540381
116	0xbeaad68f	-0.3336682
117	0x3de19ef0	0.11016643
118	0xbecc1388	-0.3985865
119	0xbe393991	-0.18088366
120	0xbe5c2869	-0.2149979
121	0xbe1878a3	-0.1488977
122	0xbe88080b	-0.26568636
123	0xbe0226c3	-0.12710099
124	0xbe934bee	-0.28768867
125	0xbbebfe08	-0.0072019137
126	0xbe9e407c	-0.30908573
127	0x3dd778fc	0.10521123
128	0xbe775975	-0.24155219
129	0xbf4e31fd	-0.80545026
130	0xbde68caa	-0.11257298
131	0xbe02674f	-0.12734722
132	0x3d4b0da4	0.049573556
133	0xbb55734b	-0.003256994
134	0x3dfe4a46	0.1241651
135	0xbd6a921d	-0.05726825
136	0xbe005b5c	-0.12534851
137	0x3d31f1b2	0.04344339
138	0xbe0234ad	-0.12715407
139	0xbd7dbdf4	-0.06194873
140	0xbe537938	-0.2065171
141	0xbeca6701	-0.3953171
142	0xbe567857	-0.20944344
143	0x3ce97bb1	0.028501363
144	0x3dc372c4	0.09543374
145	0x3db300a3	0.08740356
146	0x3d1ff73d	0.039054144
147	0x3d95db58	0.07317227
148	0x3e268a29	0.16263641
149	0xbe2fce20	-0.17168474
150	0x3e957073	0.29187354
151	0xbebd41d5	-0.36964288
152	0x3eeba69d	0.46025553
153	0x3e537a44	0.2065211
154	0x3e0d10cf	0.13775943
155	0x3ea5ada1	0.3235903
156	0xbc9c7895	-0.019100467
157	0x3f01e319	0.5073715
158	0xbe01b30e	-0.1266596
159	0x3ebdd024	0.3707286
160	0x3ed0789d	0.4071702
161	0x3ead5b7b	0.33858857
162	0x3dccb9fd	0.09996412
163	0x3ecbf1f5	0.39833036
164	0xbd9333d9	-0.071876235
165	0x3f11ff7c	0.57030463
166	0xbe1ade9a	-0.15123978
167	0x3eb49fc3	0.3527814
168	0xbe295a4c	-0.16538352
169	0x3e3fc204	0.18726355
170	0x3fa41173	1.2817825
171	0xbfa7d5cf	-1.3112124
172	0x3f0f09af	0.5587415
173	0xbdaf48c0	-0.08558798
174	0x3ed3bcae	0.4135489
175	0x3da2c2f2	0.07947339
176	0x3e9c434a	0.30520087
177	0x3d586daa	0.05283896
178	0xbec222e9	-0.3791726
179	0x3dcbfca8	0.099603
180	0xbe2bfabb	-0.16794865
181	0x3de1852d	0.110117294
182	0xbdf97c62	-0.12181927
183	0x3ce7fd66	0.028319072
184	0xbe47d7f7	-0.19515978
185	0x3c53b945	0.01292259
186	0xbf72d894	-0.9486172
187	0x3e2ee712	0.17080334
188	0xbd0e27cc	-0.034705922
189	0x3de3eba8	0.11128932
190	0x3f1b1634	0.60580754
191	0xbdf92a2d	-0.121662475
192	0x3f7ff017	0.99975723
193	0xbe3da991	-0.18521716
194	0xbf7dc4c2	-0.99128354
195	0x3e7fb5b4	0.24971658
196	0x3c828225	0.015931198
197	0x3dc922b6	0.09821074
198	0x3eeed1ac	0.46644342
199	0xbd942822	-0.07234217
200	0x3f6a665c	0.9156244
201	0xbd5e94c0	-0.054341078
202	0xbeb12057	-0.34594986
203	0x3e953131	0.29139093
204	0x3dc47b07	0.09593778
205	0x3dd7f56e	0.10544859
206	0x3edade64	0.42747796
207	0xbdd548e0	-0.104142904
208	0x3f6f6671	0.9351569
209	0xbd6e96cc	-0.05824928
210	0xbe89144e	-0.26773304
211	0xbe02c71f	-0.12771271
212	0x3d996086	0.074891135
213	0xbf3d4ad9	-0.73942333
214	0xbd28f957	-0.041253414
215	0xbe475952	-0.19467667
216	0xbd69aded	-0.057050634
217	0xbdde7d0e	-0.10863696
218	0x3d2c4ee3	0.04206742
219	0xbe11a992	-0.14224842
220	0x3d751370	0.05983299
221	0x3c8f0019	0.017456101
222	0xbc7b9984	-0.015356425
223	0x3c613886	0.013746386
224	0x3d686ac5	0.05674245
225	0xbd405d6f	-0.046964105
226	0x3e0ae5ea	0.13564268
227	0x3dc50a59	0.09621114
228	0x3d2af2ff	0.041735645
229	0x3d488710	0.04895693
230	0x3d985ed6	0.074399635
231	0x3e552d6f	0.20818113
232	0xbd4722c0	-0.048617125
233	0x3eb7dea9	0.35912064
234	0xbd8738b0	-0.06602609
235	0x3e9a4995	0.30134264
236	0xbdd6b50d	-0.104837514
237	0x3db14396	0.08655469
238	0xbc6ff9b3	-0.014646935
239	0x3e8d751b	0.27628407
240	0xbd11eb52	-0.03562481
241	0x3edd9e9e	0.43285078
242	0x3c82b7a3	0.015956705
243	0x3ec42a84	0.38313687
244	0xbe4306b0	-0.1904552
245	0x3e0bb34e	0.13642618
246	0x3b98534a	0.0046486007
247	0x3e8bd3b2	0.27309948
248	0xbc7e7433	-0.015530634
249	0x3eec9a11	0.46211293
250	0x3d84a19a	0.064761356
251	0x3e859949	0.2609351
252	0x3df355e8	0.1188162
253	0xbe2b992a	-0.16757646
254	0x3f03ccc9	0.5148435
255	0xbf149773	-0.58043593

sequential/dense_1/MatMul f4 [10, 20]
0	0x3da87057	0.08224552
1	0x3eb10011	0.34570363
2	0x3f9cf9b7	1.2263707
3	0xbd07837b	-0.033084374
4	0x3fc50aac	1.5393882
5	0x3ba0c442	0.0049062083
6	0xbb7d14e0	-0.0038617179
7	0x3fa737b3	1.3063873
8	0xb989ec8c	-0.00026306917
9	0x3f1c8bc1	0.6115075
10	0x3d397a55	0.04528268
11	0x3dd2bead	0.10290275
12	0x3f891d72	1.0712111
13	0xbda3ed5f	-0.08004259
14	0x3f49dd3b	0.78853196
15	0x3f2de857	0.6793265
16	0x3c63c132	0.013901042
17	0x3f492337	0.7856936
18	0x3f624c29	0.8839746
19	0x3cde8876	0.027164679
20	0x3f8b8a62	1.0901606
21	0x3fd7bba3	1.6854137
22	0x3aafdb0e	0.0013416724
23	0x3f39d758	0.72594213
24	0x3f1cf9b9	0.61318547
25	0x3f38a4f8	0.7212672
26	0x3f7ef39c	0.9959047
27	0x3f37cf4c	0.71800685
28	0x3f478891	0.7794276
29	0xbd136eab	-0.035994213
30	0x3f6c7137	0.9236025
31	0x3eccb9b1	0.3998542
32	0xbe70632d	-0.23475333
33	0x3f35de65	0.7104247
34	0xbe97dfe2	-0.29662997
35	0x3dd56e3c	0.10421416
36	0x3f2d55db	0.6770913
37	0xbe3263b7	-0.1742085
38	0x3db4780d	0.0881196
39	0x3d6ba420	0.05752957
40	0xbf037e16	-0.51364267
41	0xbe3533e9	-0.17695583
42	0x3f5c8186	0.8613514
43	0xbd48ee51	-0.0490554
44	0x3ea4d7a6	0.32195777
45	0x3ebc6940	0.3679905
46	0x3f17b401	0.5925904
47	0x3e5ed9ed	0.2176282
48	0x3ea76eb4	0.32701647
49	0x3f1beb24	0.6090567
50	0x3f6d5ac8	0.92716646
51	0xbe9c4471	-0.30520967
52	0xbdf8f2a9	-0.12155659
53	0x3fa0130c	1.2505813
54	0xbe1a00f7	-0.1503943
55	0x3f89c968	1.0764589
56	0x3f3d58f0	0.7396383
57	0x3f5545c6	0.8330959
58	0x3f35e5f4	0.71054006
59	0x3d6db87b	0.058037262
60	0x3f0f9da6	0.5609993
61	0x3f682f9a	0.90697634
62	0x3e8517e3	0.25994787
63	0xbe94826f	-0.29005763
64	0x3ee3369a	0.44377595
65	0xbf59b3ab	-0.85039777
66	0xbfd55ff5	-1.6669909
67	0x3edb98af	0.42889926
68	0xc0084ae1	-2.1295702
69	0x3cf47ec4	0.029845603
70	0xbe21eef4	-0.1581381
71	0x3fb58ff4	1.4184556
72	0x3f00fca0	0.50385475
73	0x3d7bdd7e	0.06149053
74	0x3f1f8eda	0.6232735
75	0x3e716f89	0.23577704
76	0xc001c99b	-2.02793
77	0xbd3d39d1	-0.046197716
78	0x3fd889ce	1.6917055
79	0x40210b38	2.5163097
80	0xbeea8757	-0.4580638
81	0xbf1a7bdb	-0.6034524
82	0x3eb57cc2	0.35446745
83	0x3e8b4b37	0.27205822
84	0x3e9afc29	0.30270508
85	0xbc88f087	-0.016716255
86	0x3f017cf6	0.505813
87	0x3ee0078d	0.4375576
88	0x3ec8a666	0.39189452
89	0x3caaf28b	0.020867607
90	0x3ee97c49	0.45602635
91	0x3f855bfe	1.0418699
92	0x3f1bf77a	0.60924494
93	0x3f25bea7	0.6474404
94	0x3f3684b6	0.7129625
95	0x3ff660ce	1.9248292
96	0x3edf3c0b	0.43600497
97	0xbcdf1a67	-0.02723427
98	0x3fa0d916	1.2566249
99	0x3e8ccb2a	0.27498752
100	0xbef001bd	-0.46876326
101	0xbf2ac363	-0.66704386
102	0xbd6f9b21	-0.05849755
103	0xbdf7f106	-0.121065184
104	0x3d2ee468	0.042698294
105	0xbd612041	-0.0549624
106	0xbe0e2cb6	-0.13884243
107	0x3e482d60	0.19548559
108	0xbe0bdcd3	-0.13658457
109	0x3fb4bce7	1.4120148
110	0x3e225e6c	0.15856332
111	0x3f6766b7	0.90391105
112	0x3ec237c5	0.37933174
113	0x3ec57c72	0.38571507
114	0x3d321bd2	0.043483563
115	0xbd0a79ec	-0.03380768
116	0xbf094081	-0.5361405
117	0x3fdeae71	1.7396985
118	0x3fdee25d	1.741283
119	0x3e927b5c	0.2860974
120	0x3efdd184	0.4957391
121	0x3eed8da2	0.4639712
122	0xbea0cde5	-0.31407085
123	0x3f8cb355	1.0992228
124	0x3f17dd1b	0.59321755
125	0x3ec0cfd2	0.37658554
126	0x3e2120b0	0.15735126
127	0x3f1b30ca	0.6062132
128	0x3eed960a	0.46403533
129	0x3f1842b4	0.5947678
130	0x3e4f1135	0.20221408
131	0xbd9756b9	-0.07389588
132	0x3f86f5b6	1.0543735
133	0x3e7856a8	0.24251807
134	0x3f6c54f6	0.9231714
135	0xbe822cda	-0.25424844
136	0x3f194f71	0.5988684
137	0x3f59d2cb	0.8508727
138	0xbe90e11c	-0.28296745
139	0x3e170894	0.14749366
140	0xbe3eb5fb	-0.18624108
141	0xbe205f5c	-0.15661377
142	0x3ec491e6	0.38392562
143	0xbeaaa7c1	-0.3333111
144	0x3e298d60	0.16557837
145	0xbe574084	-0.21020705
146	0xbd1908a5	-0.03736176
147	0x3db98962	0.09059407
148	0x3e54e0bc	0.20788854
149	0x3c4fe43b	0.012688692
150	0x3f96db41	1.1785661
151	0xbe8c3ee4	-0.27391732
152	0xbd38cd33	-0.04511757
153	0x3e670697	0.22561108
154	0xbe4e1e2f	-0.20128702
155	0x3d3c7188	0.04600671
156	0x3fab2e2b	1.3373464
157	0x3dacede6	0.08443813
158	0xbdf330cd	-0.118745424
159	0x4001a00a	2.025393
160	0x3f93697c	1.1516566
161	0x3fc32b02	1.52475
162	0x3de0b08b	0.10971173
163	0x3f4b84e8	0.79499674
164	0xbe84eb23	-0.25960645
165	0xbe20072b	-0.15627734
166	0xbf48e390	-0.7847223
167	0xbe5383d6	-0.2065576
168	0xbf49b3b8	-0.78789854
169	0x3f0cb8c1	0.5496941
170	0xbee8cbe6	-0.45468062
171	0x3d2aed5f	0.04173028
172	0xbec9b566	-0.3939621
173	0x3e5a15e9	0.2129742
174	0xbefc542f	-0.49282977
175	0xbe1fcbcd	-0.15605088
176	0xbfd5694f	-1.6672763
177	0x3f50d3c0	0.81573105
178	0xbed8cf8a	-0.4234584
179	0x3e9e33eb	0.30898985
180	0x3fa0e530	1.2569942
181	0x3f3a5af7	0.7279505
182	0x3ec229d2	0.3792253
183	0x3dad8375	0.08472339
184	0xbe24c011	-0.16088893
185	0x3f1fa24a	0.6235701
186	0x3f27bec8	0.65525484
187	0xbd502f91	-0.050826613
188	0x3f02d004	0.51098657
189	0x3f2957ba	0.66149485
190	0x3e90eeb2	0.2830711
191	0xbf9e29e1	-1.235653
192	0x3f85bc26	1.0448043
193	0x3ed0ae69	0.40758064
194	0x3f30f5e9	0.6912523
195	0x3f24d9ae	0.6439465
196	0x3e32d785	0.17465027
197	0x3f0bae41	0.54562765
198	0x3e93f71b	0.28899464
199	0x3f0d1e45	0.5512431

sequential/dense_2/MatMul f4 [27, 10]
0	0xbfa387de	-1.2775838
1	0xbf3a856e	-0.7285985
2	0xbe8e373d	-0.27776518
3	0x3f038527	0.5137505
4	0x3f6400a3	0.8906347
5	0xbcd5fcb4	-0.026121475
6	0xbf03529b	-0.5129792
7	0x3ec5f70a	0.38665038
8	0xbf8cbebf	-1.0995711
9	0x3e6d7ba5	0.23191698
10	0x3e54c244	0.20777231
11	0xbecc94a7	-0.39957163
12	0x3f03c188	0.5146718
13	0xbfe2b790	-1.7712269
14	0x3d9f9d5b	0.07793685
15	0x3dece3e7	0.115669064
16	0xbe8ba34d	-0.27273026
17	0x3e6fd59c	0.2342133
18	0xbd037d87	-0.032102134
19	0x3d83f396	0.06442945
20	0x3e15a966	0.14615402
21	0x3e1300b4	0.14355737
22	0xbf3c04e6	-0.73444974
23	0x3f7dd0b5	0.99146587
24	0xbf0de181	-0.55422217
25	0xbe6bfb2f	-0.23045038
26	0xbf86b855	-1.0525004
27	0xbe75461a	-0.23952523
28	0xbe31b309	-0.17353453
29	0xbc74b581	-0.014935852
30	0x3e949e3d	0.29026976
31	0x3dc822c8	0.09772259
32	0xbef88ebb	-0.48546395
33	0x3f2ec21e	0.6826495
34	0x3d98df7d	0.07464502
35	0xbebe7707	-0.37200186
36	0xbec38f66	-0.38195342
37	0x3d618ba1	0.0550648
38	0xbf2c8e7b	-0.6740491
39	0x3d11a41a	0.03555689
40	0x3edf75a2	0.43644434
41	0x3d1feb75	0.03904291
42	0xbebb3ed5	-0.36571375
43	0x3f1dd775	0.61656886
44	0xbf55e65d	-0.8355463
45	0xbefe8c6e	-0.49716514
46	0xbdf8db81	-0.12151242
47	0xbf24acdf	-0.6432628
48	0xbead8c86	-0.33896273
49	0x3e6d2d4c	0.2316181
50	0xbe49a3f7	-0.19691454
51	0xbee15e8e	-0.44017452
52	0x3ed6f61d	0.41984645
53	0x3e9f9c18	0.31173778
54	0x3e090577	0.13380991
55	0xbdf141c1	-0.1178012
56	0xbe4e69cb	-0.20157544
57	0x3eba4927	0.36383936
58	0xbd33e22a	-0.04391686
59	0xbf263cdd	-0.6493662
60	0xbe92301f	-0.28552338
61	0xbf201092	-0.62525284
62	0xbea52c85	-0.32260528
63	0x3f2807e9	0.6563707
64	0x3e8cc4d0	0.27493906
65	0xbe57711e	-0.21039245
66	0xbfcdff97	-1.6093625
67	0x3e830e3e	0.25596803
68	0xbe217469	-0.15767063
69	0xbdf677db	-0.12034579
70	0x3dc1a223	0.09454753
71	0x3dee63c9	0.11640126
72	0x3e1237b9	0.14279069
73	0xbbedb610	-0.0072543696
74	0xbd21861e	-0.039434545
75	0xbee1a56d	-0.44071522
76	0x3cee856b	0.029116353
77	0xbd83c81f	-0.064346544
78	0xbf38c1e7	-0.7217087
79	0x3e8848e5	0.26618114
80	0x3eaad96e	0.3336901
81	0x3f009c64	0.50238633
82	0x3c3e6359	0.011620366
83	0xbfbe0d6f	-1.484785
84	0x3c01e40c	0.007927906
85	0xbf63f645	-0.8904765
86	0x3ec02ea1	0.37535575
87	0xbfaa636d	-1.3311592
88	0xbf2af8a8	-0.6678567
89	0x3cdce7f4	0.026966073
90	0xbde44e3b	-0.11147734
91	0xbf4ca5be	-0.799404
92	0x3e9a48ec	0.3013376
93	0x3db23046	0.08700614
94	0xbe9292a6	-0.2862751
95	0x3f3694f8	0.7132106
96	0xbf24f6cb	-0.64439076
97	0x3ddd215a	0.10797377
98	0xbeb595d7	-0.3546588
99	0xbf7239d5	-0.94619495
100	0x3edd6ff8	0.43249488
101	0xbe350f1c	-0.17681545
102	0xbd1a67ce	-0.037696652
103	0xbebaa110	-0.36451006
104	0x3e8419f4	0.2580105
105	0x3efbc324	0.49172318
106	0x3cd01089	0.02539851
107	0xbf14a347	-0.5806164
108	0xbf17953a	-0.59212077
109	0xbec4f3ed	-0.3846735
110	0x3f72c295	0.9482816
111	0x3da49548	0.08036286
112	0xbf1bd335	-0.6086915
113	0xbf8ed71c	-1.1159396
114	0xbfe99af4	-1.8250413
115	0xbeab2aaa	-0.33430988
116	0x3ec378c6	0.3817808
117	0xbfe11767	-1.7585267
118	0x3e6afd72	0.22948244
119	0x3e3556f1	0.17708947
120	0x3e1525bd	0.14565177
121	0x3dc336e4	0.09531954
122	0x3eb20319	0.34767988
123	0xbf9cdc17	-1.2254666
124	0x3dbb0ffc	0.09133908
125	0xbf67d8df	-0.90565294
126	0xbf305611	-0.68881327
127	0xbf49969f	-0.78745455
128	0x3f4a49b0	0.7901869
129	0x3f1d6b80	0.61492157
130	0xbeef5608	-0.46745324
131	0xbf621626	-0.88315046
132	0x3f22094e	0.6329545
133	0xbee557fe	-0.44793695
134	0xbf8c67b3	-1.0969146
135	0x3eed005c	0.46289337
136	0x3d96d209	0.0736428
137	0x3f44eb8a	0.76921904
138	0xbf0b6a84	-0.54459405
139	0xbe3eeeb9	-0.18645753
140	0xbec82401	-0.3908997
141	0xbf4e27ec	-0.80529666
142	0x3f434b6c	0.7628696
143	0xbfd6f36d	-1.6793038
144	0xbf4ad97c	-0.79238105
145	0x3eba65be	0.36405748
146	0xbeebb714	-0.46038115
147	0x3f041eda	0.51609576
148	0x3c739697	0.014867446
149	0x3d8c3cad	0.068475105
150	0x3e990a76	0.29890794
151	0xbe6af9e7	-0.22946893
152	0xbec0edd1	-0.3768144
153	0xbd394fed	-0.04524224
154	0x3ea25cc4	0.317114
155	0x3dbfa965	0.09358481
156	0x3dd7171f	0.10502457
157	0x3f422d5a	0.7585045
158	0xbf43a339	-0.76420933
159	0xbe931f71	-0.28734925
160	0xbfebd749	-1.8425075
161	0x3e9d928f	0.30775878
162	0x3f06d521	0.5266896
163	0xbfc7d40b	-1.5611585
164	0xbddfcca4	-0.10927704
165	0xc0040c80	-2.063263
166	0x3e0ccd64	0.13750225
167	0x3e22e242	0.15906623
168	0xbe109066	-0.14117584
169	0x3f09893e	0.5372504
170	0xbdbed39a	-0.093177035
171	0x3e969bb1	0.29415658
172	0x3f1cd036	0.61255205
173	0xbfcfed19	-1.6244231
174	0x3db77c6c	0.089592785
175	0xc00177b7	-2.0229318
176	0x3ecd3fac	0.4008764
177	0xbd8a7ece	-0.06762467
178	0xbe49cff5	-0.19708236
179	0x3e30193d	0.17197128
180	0xc0380047	-2.875017
181	0x3f5ef1ee	0.87087905
182	0xbf9f2d80	-1.243576
183	0xbe691d9c	-0.22765201
184	0xbf80243e	-1.001106
185	0x3d04fa4a	0.032465257
186	0x3ce6a3cc	0.028154276
187	0xbf643855	-0.89148456
188	0x3f178eb8	0.59202147
189	0xbf720cee	-0.9455098
190	0xbea509f0	-0.32234144
191	0xbf60e2ea	-0.87846243
192	0x3edc76a0	0.43059254
193	0x3e0a7fe8	0.13525355
194	0xbf00f485	-0.5037311
195	0x3f03c421	0.51471144
196	0xbe8319bf	-0.2560558
197	0x3f098e55	0.53732806
198	0x3daf08f2	0.08546628
199	0xbf266672	-0.6500007
200	0xbe916865	-0.2839996
201	0xbf8e6f70	-1.1127758
202	0xbf4f1fc7	-0.80907863
203	0xbf834b2f	-1.0257319
204	0xbffac4cc	-1.9591308
205	0x3c4b3f82	0.012405278
206	0x3f8d79ea	1.105283
207	0xc016a163	-2.3536003
208	0x3d3032b2	0.043017097
209	0x3f31a412	0.69390976
210	0xc0045901	-2.0679324
211	0x3e76f702	0.24117664
212	0xbfb24a10	-1.3928852
213	0x3bc2e378	0.0059475265
214	0xbf9dc7f1	-1.2326642
215	0x3eb33ac3	0.3500577
216	0x3a3d6046	0.00072241237
217	0xbf9b9511	-1.2154866
218	0x3f6db8d2	0.9286014
219	0xbf66e8a1	-0.90198714
220	0xbfde99de	-1.7390707
221	0x3eb11825	0.34588733
222	0xbfaaf613	-1.3356346
223	0xbdfec6a5	-0.12440232
224	0xbf88d604	-1.0690312
225	0x3e9e245f	0.30887124
226	0x3eb4b1be	0.35291857
227	0xbf162eea	-0.58665335
228	0x3f4841ec	0.7822559
229	0xbf847c46	-1.0350425
230	0xbfe68235	-1.8008486
231	0x3dd0265b	0.10163566
232	0xbff74e06	-1.9320686
233	0x3f2925c0	0.66073227
234	0xbf252e12	-0.6452342
235	0xbeb3acf2	-0.35092884
236	0x3d96cbc9	0.07363088
237	0x3e789c96	0.24278483
238	0x3eaa808a	0.33301193
239	0xbf426757	-0.75938934
240	0xbec4014a	-0.38282233
241	0xbf47662a	-0.77890265
242	0xbf1fb8f3	-0.62391585
243	0xbdbab960	-0.09117389
244	0xbfa428d8	-1.2824965
245	0x3beb006a	0.00717168
246	0x3f0e6d9c	0.55636
247	0xbff107c9	-1.8830501
248	0x3d819502	0.06327249
249	0x3f3bab93	0.73308676
250	0xbf26c2d9	-0.65141064
251	0xbf28e4fe	-0.65974414
252	0x3f3de3c1	0.7417565
253	0xbf3f9dc5	-0.7485011
254	0x3f1b2381	0.6060105
255	0x3f6301e6	0.8867477
