model/point_history_classifier/point_history_classifier.tflite (tflite, 6192 bytes, 6 tensors)

sequential/dense/BiasAdd/ReadVariableOp/resource f4 [24]
0	0x3e673f5d	0.22582765
1	0xbe13d1db	-0.14435522
2	0xbdb7371a	-0.08946057
3	0xbda07326	-0.07834463
4	0xbe0f55e3	-0.13997607
5	0xbe0c48c7	-0.13699637
6	0xbdd02783	-0.10163786
7	0xbd8c5753	-0.06852593
8	0xbe046206	-0.12928018
9	0xbe1377d6	-0.14401183
10	0xbd95a8cc	-0.07307586
11	0xbd5dacc6	-0.054119848
12	0xbd68ead1	-0.056864563
13	0xbdd21550	-0.10257971
14	0xbdaf339a	-0.08554764
15	0xbe11a739	-0.14223947
16	0xbde4a484	-0.11164191
17	0xbd86a570	-0.065745234
18	0xbd95abee	-0.073081836
19	0xbd5d441c	-0.054020032
20	0xbd0a1c2f	-0.033718284
21	0xbcec310f	-0.028831987
22	0xbd4fbb9d	-0.05071603
23	0xbe48d74c	-0.19613379

sequential/dense_1/BiasAdd/ReadVariableOp/resource f4 [10]
0	0x3f8475ba	1.0348427
1	0x3ed1262d	0.40849438
2	0xbf5a0357	-0.85161346
3	0x3eaddc13	0.33956966
4	0x3f8a5e1f	1.0809973
5	0x3b8c425a	0.0042803707
6	0x3d720d0e	0.05909448
7	0x3fb72f3f	1.4311293
8	0x3b7ae875	0.0038285528
9	0x3a93e660	0.0011283867

sequential/dense_2/BiasAdd/ReadVariableOp/resource f4 [5]
0	0x3f1746a5	0.5909217
1	0x3ea301f5	0.3183743
2	0x3fce8c06	1.6136482
3	0xbf8a0078	-1.0781393
4	0xbf63f419	-0.8904434

sequential/dense/MatMul f4 [24, 32]
0	0xbdf94eb8	-0.121732175
1	0x3ea11940	0.31464577
2	0xbee9ec19	-0.4568794
3	0xbfadb7e2	-1.3571742
4	0xbf89562a	-1.072942
5	0xbfd696da	-1.6764786
6	0xbe7eb4d0	-0.24873662
7	0xbf7e5b57	-0.99358124
8	0xbde3f314	-0.11130348
9	0xbf3453dc	-0.7044046
10	0x3d80ee9b	0.062955104
11	0xbebd4d20	-0.36972904
12	0x3f086030	0.5327177
13	0xbe1181ef	-0.14209722
14	0x3edbc342	0.42922407
15	0x3b531963	0.0032211177
16	0x3f2dcff1	0.6789542
17	0x3d3e51d1	0.046464745
18	0x3eafa4b0	0.34305334
19	0x3e01eafd	0.12687297
20	0x3dc75f12	0.0973493
21	0x3e7c0d37	0.24614416
22	0xbf25f37a	-0.6482464
23	0xbf080de4	-0.53146195
24	0xbf66f0f3	-0.9021141
25	0xbf3ee090	-0.74561405
26	0xbf96c1ee	-1.1777933
27	0xbf8cf93d	-1.1013561
28	0xbfa1c880	-1.2639313
29	0xbfbb7e06	-1.4647834
30	0xbfcfb163	-1.6226009
31	0xbffa80d7	-1.9570569
32	0x3e737cac	0.23778027
33	0xbcc92ad0	-0.024556547
34	0xbe0d83ca	-0.13819805
35	0x4003b981	2.0581973
36	0x3e603cf5	0.21898253
37	0x3fd5ce30	1.6703548
38	0x3f0eeabc	0.55826926
39	0x3f9990da	1.199733
40	0x3f65080e	0.89465415
41	0x3f0478b6	0.5174669
42	0x3f83470f	1.025606
43	0x3e7c80d6	0.24658522
44	0x3f5f6ddf	0.87277025
45	0xbe3e2c49	-0.18571581
46	0x3f52fa54	0.8241322
47	0xbeec9935	-0.46210638
48	0x3f10e4a3	0.5659887
49	0xbf211b83	-0.62932605
50	0x3ed1dcb1	0.40988687
51	0xbf221be9	-0.6332384
52	0x3d11ba88	0.03557828
53	0xbf019427	-0.5061669
54	0xbe0f30b8	-0.13983428
55	0xbedb6433	-0.42849883
56	0xbee1a379	-0.44070032
57	0xbe99bd27	-0.30027124
58	0xbf1aa770	-0.6041174
59	0xbddc89b7	-0.107684545
60	0xbf1c0116	-0.60939157
61	0x3d734c84	0.059399143
62	0xbef4ca5b	-0.47810635
63	0x3edefa05	0.43550125
64	0x3ea6dcde	0.32590383
65	0xbdb1c57a	-0.08680244
66	0xbf9c971a	-1.2233613
67	0xbef3842d	-0.4756178
68	0xbfebd221	-1.8423501
69	0xbf477892	-0.7791835
70	0xbf3eeee9	-0.745833
71	0xbead152a	-0.3380521
72	0xbeddd5c1	-0.43327144
73	0xbeb421eb	-0.35182127
74	0xbe89e53e	-0.2693271
75	0xbf021d4b	-0.5082595
76	0xbe2a3a15	-0.16623719
77	0xbf19fca7	-0.6015114
78	0xbd3202f7	-0.04345986
79	0xbf2fa8c4	-0.6861689
80	0x3ed8c39f	0.42336747
81	0xbf1993b9	-0.5999103
82	0x3f839714	1.028048
83	0xbeda660b	-0.42655978
84	0x3f83e000	1.0302734
85	0xbe99e38b	-0.30056414
86	0x3f5bcfe1	0.85864073
87	0xbe064e39	-0.13115777
88	0x3f2ab3c4	0.6668055
89	0x3df3056f	0.11866271
90	0x3ee236ef	0.44182536
91	0x3ec236e1	0.37932494
92	0x3e640831	0.2226875
93	0x3ef86ba1	0.48519614
94	0xbe67f147	-0.22650634
95	0x3edd5f91	0.43236974
96	0x3e209510	0.15681863
97	0x3e969ce6	0.2941658
98	0x3e7841e9	0.24243893
99	0x3f877fab	1.0585836
100	0x3edde10e	0.43335766
101	0x3f98ad1b	1.1927828
102	0x3b957850	0.0045614615
103	0x3eba21fa	0.36354047
104	0x3e7e60f4	0.24841672
105	0x3ee042ef	0.43801066
106	0xbc1756aa	-0.009236971
107	0x3e96d236	0.29457253
108	0xbeab08ad	-0.33405057
109	0x3e37f307	0.17963801
110	0xbe9a24da	-0.3010624
111	0x3e296374	0.16541845
112	0xbeef0823	-0.46685895
113	0x3cd623e9	0.02614017
114	0xbe5a7cfe	-0.21336743
115	0x3d81da56	0.063404724
116	0x3dc7248e	0.09723769
117	0x3cd83faf	0.026397554
118	0x3e88b1f8	0.2669828
119	0xbd00b0a7	-0.03141847
120	0x3f12ed7b	0.57393616
121	0xbc25d265	-0.010120963
122	0x3f5366a0	0.8257847
123	0x3e54210e	0.20715734
124	0x3fb65345	1.4244162
125	0x3f182a56	0.594396
126	0x400030fc	2.0029898
127	0x3f94f0e1	1.163601
128	0xbe0f7fa5	-0.14013536
129	0x3e4e7a74	0.201639
130	0x3e3544c8	0.17702019
131	0xc00420e3	-2.0645072
132	0xbebb6a03	-0.36604318
133	0xbfcca430	-1.5987606
134	0xbf2ab6f3	-0.6668541
135	0xbf703ab1	-0.93839556
136	0xbf5c37fa	-0.86022913
137	0xbeff8fae	-0.49914306
138	0xbf8b2967	-1.087201
139	0xbdf2dcb2	-0.118585005
140	0xbf573899	-0.84070736
141	0x3e67566c	0.22591561
142	0xbf339019	-0.7014175
143	0x3ec53c11	0.3852239
144	0xbee0abab	-0.43880972
145	0x3ef4e3ed	0.47830144
146	0xbabf6285	-0.0014601505
147	0x3f02080e	0.5079354
148	0x3e910e8b	0.28331408
149	0x3f0a6b4a	0.5406996
150	0x3ed6fd97	0.4199035
151	0x3ed1bb23	0.40963086
152	0x3edb03e7	0.42776415
153	0x3e887b91	0.26656774
154	0x3ec00b11	0.37508443
155	0x3d762cec	0.060101435
156	0x3e804933	0.25055847
157	0xbe86c0f6	-0.26319093
158	0x3e7a5bb9	0.24449052
159	0xbf0a3f42	-0.54002774
160	0xbe723432	-0.23652723
161	0x3df01674	0.117230326
162	0x4000198d	2.0015595
163	0xbc65a47f	-0.01401627
164	0x401335fd	2.3001702
165	0xbe3d3969	-0.18478931
166	0x3fcc8607	1.5978402
167	0xbf373c51	-0.7157641
168	0x3f666590	0.8999872
169	0xbf4f8c63	-0.8107359
170	0x3db3ba50	0.08775771
171	0xbf4713ca	-0.7776457
172	0xbf04069b	-0.5157258
173	0xbf207bc9	-0.6268888
174	0xbf30fad0	-0.6913271
175	0xbeab0afc	-0.33406818
176	0xbf675abf	-0.9037284
177	0xbe0f03f4	-0.13966352
178	0xbf883cd9	-1.0643569
179	0x3cfb4b9d	0.030675704
180	0xbefc804a	-0.49316627
181	0x3e9a24ca	0.30106193
182	0xbef6d239	-0.48207262
183	0x3e932906	0.28742236
184	0xbe8428dd	-0.25812426
185	0x3e3540bd	0.17700477
186	0x3e306725	0.17226847
187	0x3e8211c0	0.25404167
188	0x3ece8301	0.40334323
189	0x3d408952	0.04700596
190	0x3f2878a0	0.6580906
191	0xbe1a9554	-0.15096027
192	0x3d97f020	0.07418847
193	0x3d716650	0.058935463
194	0xbfcd1b7e	-1.6024015
195	0xbf4ba5b2	-0.79549706
196	0xbfb89607	-1.4420785
197	0xbea9c8e1	-0.3316107
198	0xbf9ed251	-1.2407933
199	0xbf05dbc2	-0.5228845
200	0xbf5f932e	-0.87333953
201	0xbe81e560	-0.25370312
202	0xbeff35e2	-0.49845797
203	0xbe16df53	-0.14733629
204	0xbf0c7bc2	-0.5487634
205	0xbded0381	-0.11572934
206	0xbede8775	-0.4346272
207	0xbdac57c0	-0.084151745
208	0xbe2eeb68	-0.17081988
209	0xbb52121d	-0.0032054253
210	0x3d3f9fa9	0.046783123
211	0xbd383b80	-0.04497862
212	0xbce18114	-0.02752737
213	0x3d058682	0.03259898
214	0x3c6df1ef	0.0145230135
215	0x3ddccfd4	0.107818276
216	0xbe63539b	-0.22199862
217	0x3e5f795a	0.21823636
218	0xbeb8c0b9	-0.36084536
219	0x3edb24b8	0.42801452
220	0xbf26ccd0	-0.6515627
221	0x3f4f29e0	0.8092327
222	0xbfa1aeb9	-1.2631446
223	0x3f92f413	1.1480736
224	0xbe5e3f08	-0.21703732
225	0xbaffd900	-0.0019519627
226	0xbf6d6e6c	-0.92746615
227	0xbf3cfdce	-0.73824775
228	0xbf0c04ec	-0.5469501
229	0xbf3dbd8b	-0.74117345
230	0xbf280c07	-0.6564335
231	0xbf1573b8	-0.583797
232	0xbe17f248	-0.14838517
233	0xbefc37ed	-0.49261418
234	0xbce36536	-0.027758222
235	0xbeb94dad	-0.36192074
236	0xbdf5140f	-0.119667165
237	0xbeab2682	-0.33427817
238	0xbe7ce73e	-0.24697587
239	0xbee22dd2	-0.44175583
240	0xbe92b0a9	-0.28650406
241	0xbea6cc49	-0.32577732
242	0xbde93d10	-0.113886
243	0xbe6f3710	-0.23360848
244	0xbec984a5	-0.39359012
245	0xbe2a679c	-0.16641086
246	0xbebf4b3d	-0.3736209
247	0x3cd65a4f	0.02616611
248	0xbf254f04	-0.64573693
249	0x3d584c90	0.05280739
250	0xbf8859ca	-1.0652401
251	0x3e87f257	0.26552078
252	0xbf8d23b0	-1.1026516
253	0x3f20dd41	0.62837607
254	0xbfcedcb4	-1.6161103
255	0x3f909e37	1.1298283

sequential/dense_1/MatMul f4 [10, 24]
0	0x3d8b5c8a	0.0680476
1	0x3f881511	1.0631429
2	0xbf350121	-0.7070485
3	0x3f501eb8	0.81296873
4	0x3f380f18	0.7189803
5	0x3f0ced8e	0.5504998
6	0x3f3b72c1	0.73221976
7	0x3f28c8b2	0.65931237
8	0xbf9dc98d	-1.2327133
9	0x3f6e8ac6	0.931805
10	0xbf0e366c	-0.5555179
11	0xbe8ad2b3	-0.27113876
12	0xbf18b2af	-0.5964765
13	0xbef16e4f	-0.4715447
14	0xbf37205b	-0.71533746
15	0x3f64c16c	0.8935764
16	0xbeea9c6f	-0.45822474
17	0x3f0106a6	0.5040077
18	0x3f3f8ccd	0.7482422
19	0x3f505449	0.8137861
20	0x3ede949e	0.4347276
21	0x3f467ed2	0.7753726
22	0x3f3f9f6d	0.7485264
23	0xbfac40c9	-1.3457271
24	0xbf92a9be	-1.1458051
25	0x3cd2e6ce	0.025744822
26	0x3f33ef7a	0.7028729
27	0x3f7b065b	0.9805657
28	0xbd5f5590	-0.054524958
29	0xbe8e7d5d	-0.2783002
30	0x3f3dbc33	0.74115294
31	0x3f29eb47	0.6637463
32	0x3e17a2d0	0.14808202
33	0xbe8caa1b	-0.2747353
34	0xbed1e577	-0.4099538
35	0x3e8ae490	0.27127504
36	0x3cf803b1	0.030275198
37	0x3f3dc893	0.74134177
38	0x3f86cc62	1.0531123
39	0xbe92fb81	-0.28707507
40	0x3f287905	0.6580966
41	0xbdf88ac7	-0.12135845
42	0x3f60bec4	0.87791085
43	0x3ed4ccbb	0.41562447
44	0x3f30bfb9	0.69042546
45	0x3f7b1b23	0.9808828
46	0x3ea9bfa6	0.3315403
47	0x3f3cd77c	0.73766303
48	0x3f258d5c	0.6466882
49	0x3ed873b8	0.42275786
50	0x3d306753	0.043067288
51	0xbc16aea5	-0.009196912
52	0x3ecbafbb	0.3978251
53	0x3f2d7693	0.67759055
54	0x3e0373e9	0.12837185
55	0x3e39957d	0.18123432
56	0x3eb3a70a	0.35088378
57	0x3f30e47b	0.69098634
58	0x3ec190eb	0.37805876
59	0x3ee3bb25	0.44478717
60	0x3f0b5612	0.5442821
61	0xbe851abb	-0.25996956
62	0xbd9c6e64	-0.07638243
63	0x3f372d4e	0.71553504
64	0xbd9c3446	-0.07627158
65	0x3ebe4934	0.37165225
66	0xbe3e5798	-0.18588102
67	0x3e4e1066	0.20123443
68	0xbea099ad	-0.31367245
69	0x3e3d59e5	0.18491323
70	0x3e08d0fd	0.13360973
71	0xbde681a8	-0.11255199
72	0x3d8ff203	0.07028582
73	0x3ee06b52	0.4383188
74	0x3f3bb208	0.7331853
75	0x3ed792d9	0.42104223
76	0x3e7b2f3d	0.24529739
77	0x3f678c13	0.9044811
78	0x3ea7954c	0.32731092
79	0x3f4405c8	0.7657132
80	0x3f82cbeb	1.0218481
81	0x3deb5f74	0.114928156
82	0x3f74f949	0.9569288
83	0x3f4b9c9e	0.79535854
84	0x3f483acf	0.78214735
85	0x3e85de7d	0.26146308
86	0x3f072a4e	0.52798927
87	0x3dbaeea1	0.09127546
88	0x3f79fe3f	0.97653574
89	0x3f4a08cb	0.78919667
90	0xbd9b34f0	-0.075784564
91	0x3f39031b	0.72270364
92	0x3d5f0b03	0.05445386
93	0x3f0870f9	0.5329738
94	0x3f0d2210	0.551301
95	0x3f865a21	1.0496255
96	0x3e7e1fc4	0.24816805
97	0xbfd830cd	-1.6889893
98	0xc00c0ed2	-2.1884046
99	0xc09ca8e3	-4.895616
100	0xc0879b95	-4.237742
101	0xc01135d3	-2.2689102
102	0xc02ef3a7	-2.7336214
103	0xbfbd2980	-1.477829
104	0xbf7ae1c7	-0.9800076
105	0xbfab13bd	-1.3365399
106	0xbf5cff9a	-0.8632752
107	0x3dc38d32	0.09548415
108	0xbd57e497	-0.052708235
109	0xc037275a	-2.8617768
110	0xbf6678fa	-0.90028346
111	0xc05be3d5	-3.4357808
112	0xbd99caa3	-0.07509353
113	0xbf05bea9	-0.5224405
114	0xc0a49fbd	-5.1444993
115	0xc0967f89	-4.7030683
116	0xbf2946ef	-0.6612386
117	0xc0839b76	-4.112727
118	0xc0724f71	-3.7860987
119	0xc0278245	-2.617326
120	0x3e542b3f	0.20719622
121	0x3f4db7fc	0.8035886
122	0x3ef028ae	0.46906036
123	0xbe240877	-0.16018854
124	0x3e3766a2	0.17910245
125	0x3f0357f5	0.51306087
126	0x3e6411d8	0.22272432
127	0x3f17852a	0.5918757
128	0x3f23e641	0.64023215
129	0x3ed9b80a	0.42523223
130	0x3ec49810	0.38397264
131	0x3ec8048d	0.39065972
132	0x3ebd42d6	0.36965054
133	0xbf389431	-0.7210112
134	0xbe7d2594	-0.24721366
135	0x3f052921	0.5201588
136	0x3f0203cc	0.50787044
137	0x3f5d9636	0.8655733
138	0xbf57cc14	-0.84295774
139	0x3f2c4b99	0.6730285
140	0xbf268dfd	-0.65060407
141	0x3f8d32c0	1.1031113
142	0x3e8ec5b2	0.27885205
143	0x3e6d0861	0.23147728
144	0xbdfce1fd	-0.12347791
145	0x40049448	2.0715504
146	0x3f81996e	1.0124948
147	0x3ff474b9	1.9098121
148	0x40205ec4	2.505784
149	0x3fab30f5	1.3374316
150	0x4033923c	2.8058004
151	0x400ff9e6	2.2496276
152	0x3f346081	0.70459753
153	0x400c7038	2.1943493
154	0x3e70820a	0.23487106
155	0x3f588343	0.8457529
156	0x3f2c6e43	0.67355746
157	0x3f76c80f	0.96399015
158	0x3f80bb7a	1.0057213
159	0x3ff6244a	1.9229825
160	0x3fa898e7	1.3171662
161	0x4019fbc5	2.4059918
162	0x3fdc027a	1.7188256
163	0x3fffe73c	1.9992442
164	0x3f3805f2	0.7188407
165	0x3fe00382	1.750107
166	0x3ff84449	1.9395839
167	0x3f3b32fd	0.73124677
168	0x3e11e797	0.14248501
169	0xbfdd63cc	-1.729608
170	0x3eea2944	0.45734608
171	0x3e9d3cbc	0.307104
172	0xbfe6a603	-1.8019413
173	0xbff52505	-1.9151922
174	0xbe1e9799	-0.15487517
175	0xbd42701b	-0.047470193
176	0x3dc2586c	0.094895214
177	0xc0133f67	-2.3007448
178	0xbf314a96	-0.69254434
179	0x3e834ce5	0.25644603
180	0x3e0665a0	0.13124704
181	0x3ed133cb	0.40859827
182	0x3f2f8134	0.68556523
183	0xc020dc41	-2.5134432
184	0x3ea62302	0.32448584
185	0xbf2bb00c	-0.670655
186	0xbf0299d0	-0.5101595
187	0x3dca2c7c	0.09871766
188	0x3dbfdca0	0.09368253
189	0x3db11148	0.08645874
190	0xbf3c1788	-0.73473406
191	0x3ef1ff75	0.4726521
192	0x3f478716	0.779405
193	0x3e8045c6	0.25053233
194	0x3be36d15	0.006940494
195	0x3f30d03b	0.69067734
196	0x3f339682	0.7015153
197	0x3f51606b	0.8178775
198	0x3eae1122	0.33997446
199	0x3e5adade	0.21372554
200	0x3e3d1ab7	0.18467222
201	0x3f41eb3f	0.7574958
202	0x3f3ae148	0.73
203	0x3f3b69a0	0.73208046
204	0x3f3f3d3a	0.747028
205	0x3eb24fe3	0.34826574
206	0x3eab512d	0.3346037
207	0x3f2d4dfa	0.6769711
208	0x3c6f9ab2	0.014624285
209	0x3e0161e7	0.12635003
210	0x3f0073fd	0.50176984
211	0x3e2344f9	0.1594428
212	0x3ebd71b4	0.3700081
213	0xbf00a23d	-0.50247556
214	0x3e93180a	0.28729278
215	0x3e19383e	0.14962861
216	0x3e823b03	0.25435647
217	0x3f0ac5e7	0.54208225
218	0x3fb2a474	1.3956437
219	0x3f52be31	0.8232146
220	0x3f849f03	1.0361027
221	0x3fd7a33f	1.6846694
222	0x3f609654	0.8772938
223	0x3f53dbdd	0.8275736
224	0x3fa29472	1.2701552
225	0x3f00cbac	0.5031078
226	0x40049563	2.0716178
227	0x3fab5680	1.3385773
228	0x3fea2e57	1.8295392
229	0x3fb566f0	1.4172039
230	0x3febf9f3	1.8435653
231	0x3f85a06e	1.0439584
232	0x3f9674a6	1.1754348
233	0x3f80d26c	1.0064216
234	0x3fb12afe	1.3841245
235	0x3f969029	1.1762744
236	0x3ebead31	0.3724151
237	0x3ff38717	1.9025601
238	0x3f8ead80	1.1146698
239	0x3fe14b33	1.7601074

sequential/dense_2/MatMul f4 [5, 10]
0	0xbf9ebb2a	-1.2400868
1	0xc09040ec	-4.507925
2	0xbf518c82	-0.8185502
3	0xc05e199a	-3.4703126
4	0x4045545f	3.0832746
5	0xc098cb0f	-4.7747874
6	0xc0ec7e3a	-7.3904085
7	0x3fe2a880	1.7707672
8	0xc027af5a	-2.6200776
9	0xc0e2d634	-7.088648
10	0xbff3723c	-1.9019237
11	0xbf1e6af6	-0.6188196
12	0xbfdac9b2	-1.7092803
13	0x3f75b96e	0.9598607
14	0xbfeed570	-1.8658886
15	0xbe1c9929	-0.15292801
16	0xbf15d9be	-0.58535373
17	0x3f70a85e	0.9400691
18	0xbe04f174	-0.12982732
19	0x3f522f5e	0.82103527
20	0x3f9ad1da	1.2095292
21	0xbf716c65	-0.9430602
22	0xbfad8664	-1.3556638
23	0x3f329c55	0.69769794
24	0xbfb0fd17	-1.3827237
25	0xbee48b5b	-0.4463757
26	0x3e0ca20e	0.13733694
27	0xc038cfeb	-2.8876903
28	0x3f149c90	0.58051395
29	0x3e55b1bd	0.20868583
30	0x3e8627b8	0.26202178
31	0x3f180d82	0.5939561
32	0xbeb5dfaa	-0.35522205
33	0xbe02a443	-0.12757973
34	0xbf036a52	-0.51334107
35	0x3f1bf6c4	0.6092341
36	0x3e4e803b	0.20166104
37	0xbef11a23	-0.47090253
38	0x3f1f8c43	0.623234
39	0x3e8842eb	0.26613554
40	0x3eafb0fa	0.3431471
41	0x3f6d8e6a	0.9279543
42	0x3fc880b3	1.5664276
43	0x3f0721df	0.5278606
44	0xbfbf6713	-1.4953331
45	0xbf0e6eb4	-0.5563767
46	0x3e73cfa5	0.23809679
47	0xbf46ebbc	-0.7770345
48	0xbeca559a	-0.39518434
49	0x3dfa48ee	0.122209415
